…
I0119 18:44:06.050794 30922 solver.cpp:87] Creating training net from net file: face_train_test.prototxt
I0119 18:44:06.052126 30922 net.cpp:51] Initializing net from parameters: 
name: "Face-ResNet"
state {
  phase: TRAIN
  level: 0
  stage: ""
}
layer {
  name: "data"
  type: "ImageData"
  top: "data"
  top: "label"
  transform_param {
    scale: 0.0078125
    mirror: true
    mean_value: 128
  }
  image_data_param {
    source: "/home/sdc1/zf/datasets/face-recognition/VGGFace2/VGGFACE_train_list-112X96.txt"
    batch_size: 256
    shuffle: true
  }
}
layer {
  name: "conv1_1"
  type: "Convolution"
  bottom: "data"
  top: "conv1_1"
  param {
    lr_mult: 1
    decay_mult: 1
  }
  param {
    lr_mult: 2
    decay_mult: 0
  }
  convolution_param {
    num_output: 64
    pad: 1
    kernel_size: 3
    stride: 2
    weight_filler {
      type: "xavier"
    }
    bias_filler {
      type: "constant"
      value: 0
    }
  }
}
layer {
  name: "relu1_1"
  type: "PReLU"
  bottom: "conv1_1"
  top: "conv1_1"
}
layer {
  name: "conv1_2"
  type: "Convolution"
  bottom: "conv1_1"
  top: "conv1_2"
  param {
    lr_mult: 1
    decay_mult: 1
  }
  param {
    lr_mult: 0
    decay_mult: 0
  }
  convolution_param {
    num_output: 64
    pad: 1
    kernel_size: 3
    stride: 1
    weight_filler {
      type: "gaussian"
      std: 0.01
    }
    bias_filler {
      type: "constant"
      value: 0
    }
  }
}
layer {
  name: "relu1_2"
  type: "PReLU"
  bottom: "conv1_2"
  top: "conv1_2"
}
layer {
  name: "conv1_3"
  type: "Convolution"
  bottom: "conv1_2"
  top: "conv1_3"
  param {
    lr_mult: 1
    decay_mult: 1
  }
  param {
    lr_mult: 0
    decay_mult: 0
  }
  convolution_param {
    num_output: 64
    pad: 1
    kernel_size: 3
    stride: 1
    weight_filler {
      type: "gaussian"
      std: 0.01
    }
    bias_filler {
      type: "constant"
      value: 0
    }
  }
}
layer {
  name: "relu1_3"
  type: "PReLU"
  bottom: "conv1_3"
  top: "conv1_3"
}
layer {
  name: "res1_3"
  type: "Eltwise"
  bottom: "conv1_1"
  bottom: "conv1_3"
  top: "res1_3"
  eltwise_param {
    operation: SUM
  }
}
layer {
  name: "conv2_1"
  type: "Convolution"
  bottom: "res1_3"
  top: "conv2_1"
  param {
    lr_mult: 1
    decay_mult: 1
  }
  param {
    lr_mult: 2
    decay_mult: 0
  }
  convolution_param {
    num_output: 128
    pad: 1
    kernel_size: 3
    stride: 2
    weight_filler {
      type: "xavier"
    }
    bias_filler {
      type: "constant"
      value: 0
    }
  }
}
layer {
  name: "relu2_1"
  type: "PReLU"
  bottom: "conv2_1"
  top: "conv2_1"
}
layer {
  name: "conv2_2"
  type: "Convolution"
  bottom: "conv2_1"
  top: "conv2_2"
  param {
    lr_mult: 1
    decay_mult: 1
  }
  param {
    lr_mult: 0
    decay_mult: 0
  }
  convolution_param {
    num_output: 128
    pad: 1
    kernel_size: 3
    stride: 1
    weight_filler {
      type: "gaussian"
      std: 0.01
    }
    bias_filler {
      type: "constant"
      value: 0
    }
  }
}
layer {
  name: "relu2_2"
  type: "PReLU"
  bottom: "conv2_2"
  top: "conv2_2"
}
layer {
  name: "conv2_3"
  type: "Convolution"
  bottom: "conv2_2"
  top: "conv2_3"
  param {
    lr_mult: 1
    decay_mult: 1
  }
  param {
    lr_mult: 0
    decay_mult: 0
  }
  convolution_param {
    num_output: 128
    pad: 1
    kernel_size: 3
    stride: 1
    weight_filler {
      type: "gaussian"
      std: 0.01
    }
    bias_filler {
      type: "constant"
      value: 0
    }
  }
}
layer {
  name: "relu2_3"
  type: "PReLU"
  bottom: "conv2_3"
  top: "conv2_3"
}
layer {
  name: "res2_3"
  type: "Eltwise"
  bottom: "conv2_1"
  bottom: "conv2_3"
  top: "res2_3"
  eltwise_param {
    operation: SUM
  }
}
layer {
  name: "conv2_4"
  type: "Convolution"
  bottom: "res2_3"
  top: "conv2_4"
  param {
    lr_mult: 1
    decay_mult: 1
  }
  param {
    lr_mult: 0
    decay_mult: 0
  }
  convolution_param {
    num_output: 128
    pad: 1
    kernel_size: 3
    stride: 1
    weight_filler {
      type: "gaussian"
      std: 0.01
    }
    bias_filler {
      type: "constant"
      value: 0
    }
  }
}
layer {
  name: "relu2_4"
  type: "PReLU"
  bottom: "conv2_4"
  top: "conv2_4"
}
layer {
  name: "conv2_5"
  type: "Convolution"
  bottom: "conv2_4"
  top: "conv2_5"
  param {
    lr_mult: 1
    decay_mult: 1
  }
  param {
    lr_mult: 0
    decay_mult: 0
  }
  convolution_param {
    num_output: 128
    pad: 1
    kernel_size: 3
    stride: 1
    weight_filler {
      type: "gaussian"
      std: 0.01
    }
    bias_filler {
      type: "constant"
      value: 0
    }
  }
}
layer {
  name: "relu2_5"
  type: "PReLU"
  bottom: "conv2_5"
  top: "conv2_5"
}
layer {
  name: "res2_5"
  type: "Eltwise"
  bottom: "res2_3"
  bottom: "conv2_5"
  top: "res2_5"
  eltwise_param {
    operation: SUM
  }
}
layer {
  name: "conv3_1"
  type: "Convolution"
  bottom: "res2_5"
  top: "conv3_1"
  param {
    lr_mult: 1
    decay_mult: 1
  }
  param {
    lr_mult: 2
    decay_mult: 0
  }
  convolution_param {
    num_output: 256
    pad: 1
    kernel_size: 3
    stride: 2
    weight_filler {
      type: "xavier"
    }
    bias_filler {
      type: "constant"
      value: 0
    }
  }
}
layer {
  name: "relu3_1"
  type: "PReLU"
  bottom: "conv3_1"
  top: "conv3_1"
}
layer {
  name: "conv3_2"
  type: "Convolution"
  bottom: "conv3_1"
  top: "conv3_2"
  param {
    lr_mult: 1
    decay_mult: 1
  }
  param {
    lr_mult: 0
    decay_mult: 0
  }
  convolution_param {
    num_output: 256
    pad: 1
    kernel_size: 3
    stride: 1
    weight_filler {
      type: "gaussian"
      std: 0.01
    }
    bias_filler {
      type: "constant"
      value: 0
    }
  }
}
layer {
  name: "relu3_2"
  type: "PReLU"
  bottom: "conv3_2"
  top: "conv3_2"
}
layer {
  name: "conv3_3"
  type: "Convolution"
  bottom: "conv3_2"
  top: "conv3_3"
  param {
    lr_mult: 1
    decay_mult: 1
  }
  param {
    lr_mult: 0
    decay_mult: 0
  }
  convolution_param {
    num_output: 256
    pad: 1
    kernel_size: 3
    stride: 1
    weight_filler {
      type: "gaussian"
      std: 0.01
    }
    bias_filler {
      type: "constant"
      value: 0
    }
  }
}
layer {
  name: "relu3_3"
  type: "PReLU"
  bottom: "conv3_3"
  top: "conv3_3"
}
layer {
  name: "res3_3"
  type: "Eltwise"
  bottom: "conv3_1"
  bottom: "conv3_3"
  top: "res3_3"
  eltwise_param {
    operation: SUM
  }
}
layer {
  name: "conv3_4"
  type: "Convolution"
  bottom: "res3_3"
  top: "conv3_4"
  param {
    lr_mult: 1
    decay_mult: 1
  }
  param {
    lr_mult: 0
    decay_mult: 0
  }
  convolution_param {
    num_output: 256
    pad: 1
    kernel_size: 3
    stride: 1
    weight_filler {
      type: "gaussian"
      std: 0.01
    }
    bias_filler {
      type: "constant"
      value: 0
    }
  }
}
layer {
  name: "relu3_4"
  type: "PReLU"
  bottom: "conv3_4"
  top: "conv3_4"
}
layer {
  name: "conv3_5"
  type: "Convolution"
  bottom: "conv3_4"
  top: "conv3_5"
  param {
    lr_mult: 1
    decay_mult: 1
  }
  param {
    lr_mult: 0
    decay_mult: 0
  }
  convolution_param {
    num_output: 256
    pad: 1
    kernel_size: 3
    stride: 1
    weight_filler {
      type: "gaussian"
      std: 0.01
    }
    bias_filler {
      type: "constant"
      value: 0
    }
  }
}
layer {
  name: "relu3_5"
  type: "PReLU"
  bottom: "conv3_5"
  top: "conv3_5"
}
layer {
  name: "res3_5"
  type: "Eltwise"
  bottom: "res3_3"
  bottom: "conv3_5"
  top: "res3_5"
  eltwise_param {
    operation: SUM
  }
}
layer {
  name: "conv3_6"
  type: "Convolution"
  bottom: "res3_5"
  top: "conv3_6"
  param {
    lr_mult: 1
    decay_mult: 1
  }
  param {
    lr_mult: 0
    decay_mult: 0
  }
  convolution_param {
    num_output: 256
    pad: 1
    kernel_size: 3
    stride: 1
    weight_filler {
      type: "gaussian"
      std: 0.01
    }
    bias_filler {
      type: "constant"
      value: 0
    }
  }
}
layer {
  name: "relu3_6"
  type: "PReLU"
  bottom: "conv3_6"
  top: "conv3_6"
}
layer {
  name: "conv3_7"
  type: "Convolution"
  bottom: "conv3_6"
  top: "conv3_7"
  param {
    lr_mult: 1
    decay_mult: 1
  }
  param {
    lr_mult: 0
    decay_mult: 0
  }
  convolution_param {
    num_output: 256
    pad: 1
    kernel_size: 3
    stride: 1
    weight_filler {
      type: "gaussian"
      std: 0.01
    }
    bias_filler {
      type: "constant"
      value: 0
    }
  }
}
layer {
  name: "relu3_7"
  type: "PReLU"
  bottom: "conv3_7"
  top: "conv3_7"
}
layer {
  name: "res3_7"
  type: "Eltwise"
  bottom: "res3_5"
  bottom: "conv3_7"
  top: "res3_7"
  eltwise_param {
    operation: SUM
  }
}
layer {
  name: "conv3_8"
  type: "Convolution"
  bottom: "res3_7"
  top: "conv3_8"
  param {
    lr_mult: 1
    decay_mult: 1
  }
  param {
    lr_mult: 0
    decay_mult: 0
  }
  convolution_param {
    num_output: 256
    pad: 1
    kernel_size: 3
    stride: 1
    weight_filler {
      type: "gaussian"
      std: 0.01
    }
    bias_filler {
      type: "constant"
      value: 0
    }
  }
}
layer {
  name: "relu3_8"
  type: "PReLU"
  bottom: "conv3_8"
  top: "conv3_8"
}
layer {
  name: "conv3_9"
  type: "Convolution"
  bottom: "conv3_8"
  top: "conv3_9"
  param {
    lr_mult: 1
    decay_mult: 1
  }
  param {
    lr_mult: 0
    decay_mult: 0
  }
  convolution_param {
    num_output: 256
    pad: 1
    kernel_size: 3
    stride: 1
    weight_filler {
      type: "gaussian"
      std: 0.01
    }
    bias_filler {
      type: "constant"
      value: 0
    }
  }
}
layer {
  name: "relu3_9"
  type: "PReLU"
  bottom: "conv3_9"
  top: "conv3_9"
}
layer {
  name: "res3_9"
  type: "Eltwise"
  bottom: "res3_7"
  bottom: "conv3_9"
  top: "res3_9"
  eltwise_param {
    operation: SUM
  }
}
layer {
  name: "conv4_1"
  type: "Convolution"
  bottom: "res3_9"
  top: "conv4_1"
  param {
    lr_mult: 1
    decay_mult: 1
  }
  param {
    lr_mult: 2
    decay_mult: 0
  }
  convolution_param {
    num_output: 512
    pad: 1
    kernel_size: 3
    stride: 2
    weight_filler {
      type: "xavier"
    }
    bias_filler {
      type: "constant"
      value: 0
    }
  }
}
layer {
  name: "relu4_1"
  type: "PReLU"
  bottom: "conv4_1"
  top: "conv4_1"
}
layer {
  name: "conv4_2"
  type: "Convolution"
  bottom: "conv4_1"
  top: "conv4_2"
  param {
    lr_mult: 1
    decay_mult: 1
  }
  param {
    lr_mult: 0
    decay_mult: 0
  }
  convolution_param {
    num_output: 512
    pad: 1
    kernel_size: 3
    stride: 1
    weight_filler {
      type: "gaussian"
      std: 0.01
    }
    bias_filler {
      type: "constant"
      value: 0
    }
  }
}
layer {
  name: "relu4_2"
  type: "PReLU"
  bottom: "conv4_2"
  top: "conv4_2"
}
layer {
  name: "conv4_3"
  type: "Convolution"
  bottom: "conv4_2"
  top: "conv4_3"
  param {
    lr_mult: 1
    decay_mult: 1
  }
  param {
    lr_mult: 0
    decay_mult: 0
  }
  convolution_param {
    num_output: 512
    pad: 1
    kernel_size: 3
    stride: 1
    weight_filler {
      type: "gaussian"
      std: 0.01
    }
    bias_filler {
      type: "constant"
      value: 0
    }
  }
}
layer {
  name: "relu4_3"
  type: "PReLU"
  bottom: "conv4_3"
  top: "conv4_3"
}
layer {
  name: "res4_3"
  type: "Eltwise"
  bottom: "conv4_1"
  bottom: "conv4_3"
  top: "res4_3"
  eltwise_param {
    operation: SUM
  }
}
layer {
  name: "fc5"
  type: "InnerProduct"
  bottom: "res4_3"
  top: "fc5"
  param {
    lr_mult: 1
    decay_mult: 1
  }
  param {
    lr_mult: 2
    decay_mult: 0
  }
  inner_product_param {
    num_output: 512
    weight_filler {
      type: "xavier"
    }
    bias_filler {
      type: "constant"
      value: 0
    }
  }
}
layer {
  name: "norm1"
  type: "Normalize"
  bottom: "fc5"
  top: "norm1"
}
layer {
  name: "fc6_l2"
  type: "InnerProduct"
  bottom: "norm1"
  top: "fc6"
  param {
    lr_mult: 1
  }
  inner_product_param {
    num_output: 9131
    bias_term: false
    weight_filler {
      type: "xavier"
    }
    normalize: true
  }
}
layer {
  name: "label_specific_margin"
  type: "LabelSpecificAdd"
  bottom: "fc6"
  bottom: "label"
  top: "fc6_margin"
  label_specific_add_param {
    bias: -0.35
  }
}
layer {
  name: "fc6_margin_scale"
  type: "Scale"
  bottom: "fc6_margin"
  top: "fc6_margin_scale"
  param {
    lr_mult: 0
    decay_mult: 0
  }
  scale_param {
    filler {
      type: "constant"
      value: 30
    }
    min_value: 30
  }
}
layer {
  name: "softmax_loss"
  type: "SoftmaxWithLoss"
  bottom: "fc6_margin_scale"
  bottom: "label"
  top: "softmax_loss"
  loss_weight: 1
}
I0119 18:44:06.052582 30922 layer_factory.hpp:77] Creating layer data
I0119 18:44:06.052630 30922 net.cpp:84] Creating Layer data
I0119 18:44:06.052642 30922 net.cpp:380] data -> data
I0119 18:44:06.052675 30922 net.cpp:380] data -> label
I0119 18:44:06.052778 30922 image_data_layer.cpp:38] Opening file /home/sdc1/zf/datasets/face-recognition/VGGFace2/VGGFACE_train_list-112X96.txt
I0119 18:44:11.246804 30922 image_data_layer.cpp:53] Shuffling data
I0119 18:44:12.399260 30922 image_data_layer.cpp:63] A total of 3306982 images.
I0119 18:44:12.401202 30922 image_data_layer.cpp:90] output data size: 256,3,112,96
I0119 18:44:12.489405 30922 net.cpp:122] Setting up data
I0119 18:44:12.489442 30922 net.cpp:129] Top shape: 256 3 112 96 (8257536)
I0119 18:44:12.489450 30922 net.cpp:129] Top shape: 256 (256)
I0119 18:44:12.489455 30922 net.cpp:137] Memory required for data: 33031168
I0119 18:44:12.489476 30922 layer_factory.hpp:77] Creating layer label_data_1_split
I0119 18:44:12.489945 30922 net.cpp:84] Creating Layer label_data_1_split
I0119 18:44:12.489965 30922 net.cpp:406] label_data_1_split <- label
I0119 18:44:12.489996 30922 net.cpp:380] label_data_1_split -> label_data_1_split_0
I0119 18:44:12.490015 30922 net.cpp:380] label_data_1_split -> label_data_1_split_1
I0119 18:44:12.490198 30922 net.cpp:122] Setting up label_data_1_split
I0119 18:44:12.490211 30922 net.cpp:129] Top shape: 256 (256)
I0119 18:44:12.490216 30922 net.cpp:129] Top shape: 256 (256)
I0119 18:44:12.490324 30922 net.cpp:137] Memory required for data: 33033216
I0119 18:44:12.490337 30922 layer_factory.hpp:77] Creating layer conv1_1
I0119 18:44:12.490383 30922 net.cpp:84] Creating Layer conv1_1
I0119 18:44:12.490396 30922 net.cpp:406] conv1_1 <- data
I0119 18:44:12.490411 30922 net.cpp:380] conv1_1 -> conv1_1
I0119 18:44:13.105932 30922 net.cpp:122] Setting up conv1_1
I0119 18:44:13.105979 30922 net.cpp:129] Top shape: 256 64 56 48 (44040192)
I0119 18:44:13.105988 30922 net.cpp:137] Memory required for data: 209193984
I0119 18:44:13.106029 30922 layer_factory.hpp:77] Creating layer relu1_1
I0119 18:44:13.106051 30922 net.cpp:84] Creating Layer relu1_1
I0119 18:44:13.106061 30922 net.cpp:406] relu1_1 <- conv1_1
I0119 18:44:13.106076 30922 net.cpp:367] relu1_1 -> conv1_1 (in-place)
I0119 18:44:13.108011 30922 net.cpp:122] Setting up relu1_1
I0119 18:44:13.108041 30922 net.cpp:129] Top shape: 256 64 56 48 (44040192)
I0119 18:44:13.108048 30922 net.cpp:137] Memory required for data: 385354752
I0119 18:44:13.108067 30922 layer_factory.hpp:77] Creating layer conv1_1_relu1_1_0_split
I0119 18:44:13.108091 30922 net.cpp:84] Creating Layer conv1_1_relu1_1_0_split
I0119 18:44:13.108099 30922 net.cpp:406] conv1_1_relu1_1_0_split <- conv1_1
I0119 18:44:13.108114 30922 net.cpp:380] conv1_1_relu1_1_0_split -> conv1_1_relu1_1_0_split_0
I0119 18:44:13.108129 30922 net.cpp:380] conv1_1_relu1_1_0_split -> conv1_1_relu1_1_0_split_1
I0119 18:44:13.108196 30922 net.cpp:122] Setting up conv1_1_relu1_1_0_split
I0119 18:44:13.108211 30922 net.cpp:129] Top shape: 256 64 56 48 (44040192)
I0119 18:44:13.108220 30922 net.cpp:129] Top shape: 256 64 56 48 (44040192)
I0119 18:44:13.108227 30922 net.cpp:137] Memory required for data: 737676288
I0119 18:44:13.108237 30922 layer_factory.hpp:77] Creating layer conv1_2
I0119 18:44:13.108260 30922 net.cpp:84] Creating Layer conv1_2
I0119 18:44:13.108268 30922 net.cpp:406] conv1_2 <- conv1_1_relu1_1_0_split_0
I0119 18:44:13.108281 30922 net.cpp:380] conv1_2 -> conv1_2
I0119 18:44:13.112797 30922 net.cpp:122] Setting up conv1_2
I0119 18:44:13.112845 30922 net.cpp:129] Top shape: 256 64 56 48 (44040192)
I0119 18:44:13.112854 30922 net.cpp:137] Memory required for data: 913837056
I0119 18:44:13.112880 30922 layer_factory.hpp:77] Creating layer relu1_2
I0119 18:44:13.112898 30922 net.cpp:84] Creating Layer relu1_2
I0119 18:44:13.112907 30922 net.cpp:406] relu1_2 <- conv1_2
I0119 18:44:13.112921 30922 net.cpp:367] relu1_2 -> conv1_2 (in-place)
I0119 18:44:13.113272 30922 net.cpp:122] Setting up relu1_2
I0119 18:44:13.113288 30922 net.cpp:129] Top shape: 256 64 56 48 (44040192)
I0119 18:44:13.113296 30922 net.cpp:137] Memory required for data: 1089997824
I0119 18:44:13.113306 30922 layer_factory.hpp:77] Creating layer conv1_3
I0119 18:44:13.113327 30922 net.cpp:84] Creating Layer conv1_3
I0119 18:44:13.113333 30922 net.cpp:406] conv1_3 <- conv1_2
I0119 18:44:13.113353 30922 net.cpp:380] conv1_3 -> conv1_3
I0119 18:44:13.116209 30922 net.cpp:122] Setting up conv1_3
I0119 18:44:13.116276 30922 net.cpp:129] Top shape: 256 64 56 48 (44040192)
I0119 18:44:13.116300 30922 net.cpp:137] Memory required for data: 1266158592
I0119 18:44:13.116333 30922 layer_factory.hpp:77] Creating layer relu1_3
I0119 18:44:13.116374 30922 net.cpp:84] Creating Layer relu1_3
I0119 18:44:13.116399 30922 net.cpp:406] relu1_3 <- conv1_3
I0119 18:44:13.116426 30922 net.cpp:367] relu1_3 -> conv1_3 (in-place)
I0119 18:44:13.116747 30922 net.cpp:122] Setting up relu1_3
I0119 18:44:13.116781 30922 net.cpp:129] Top shape: 256 64 56 48 (44040192)
I0119 18:44:13.116803 30922 net.cpp:137] Memory required for data: 1442319360
I0119 18:44:13.116833 30922 layer_factory.hpp:77] Creating layer res1_3
I0119 18:44:13.116864 30922 net.cpp:84] Creating Layer res1_3
I0119 18:44:13.116888 30922 net.cpp:406] res1_3 <- conv1_1_relu1_1_0_split_1
I0119 18:44:13.116912 30922 net.cpp:406] res1_3 <- conv1_3
I0119 18:44:13.116942 30922 net.cpp:380] res1_3 -> res1_3
I0119 18:44:13.117014 30922 net.cpp:122] Setting up res1_3
I0119 18:44:13.117045 30922 net.cpp:129] Top shape: 256 64 56 48 (44040192)
I0119 18:44:13.117066 30922 net.cpp:137] Memory required for data: 1618480128
I0119 18:44:13.117086 30922 layer_factory.hpp:77] Creating layer conv2_1
I0119 18:44:13.117120 30922 net.cpp:84] Creating Layer conv2_1
I0119 18:44:13.117144 30922 net.cpp:406] conv2_1 <- res1_3
I0119 18:44:13.117172 30922 net.cpp:380] conv2_1 -> conv2_1
I0119 18:44:13.123463 30922 net.cpp:122] Setting up conv2_1
I0119 18:44:13.123505 30922 net.cpp:129] Top shape: 256 128 28 24 (22020096)
I0119 18:44:13.123512 30922 net.cpp:137] Memory required for data: 1706560512
I0119 18:44:13.123535 30922 layer_factory.hpp:77] Creating layer relu2_1
I0119 18:44:13.123553 30922 net.cpp:84] Creating Layer relu2_1
I0119 18:44:13.123560 30922 net.cpp:406] relu2_1 <- conv2_1
I0119 18:44:13.123574 30922 net.cpp:367] relu2_1 -> conv2_1 (in-place)
I0119 18:44:13.123770 30922 net.cpp:122] Setting up relu2_1
I0119 18:44:13.123785 30922 net.cpp:129] Top shape: 256 128 28 24 (22020096)
I0119 18:44:13.123790 30922 net.cpp:137] Memory required for data: 1794640896
I0119 18:44:13.123797 30922 layer_factory.hpp:77] Creating layer conv2_1_relu2_1_0_split
I0119 18:44:13.123807 30922 net.cpp:84] Creating Layer conv2_1_relu2_1_0_split
I0119 18:44:13.123813 30922 net.cpp:406] conv2_1_relu2_1_0_split <- conv2_1
I0119 18:44:13.123821 30922 net.cpp:380] conv2_1_relu2_1_0_split -> conv2_1_relu2_1_0_split_0
I0119 18:44:13.123832 30922 net.cpp:380] conv2_1_relu2_1_0_split -> conv2_1_relu2_1_0_split_1
I0119 18:44:13.123878 30922 net.cpp:122] Setting up conv2_1_relu2_1_0_split
I0119 18:44:13.123889 30922 net.cpp:129] Top shape: 256 128 28 24 (22020096)
I0119 18:44:13.123898 30922 net.cpp:129] Top shape: 256 128 28 24 (22020096)
I0119 18:44:13.123903 30922 net.cpp:137] Memory required for data: 1970801664
I0119 18:44:13.123908 30922 layer_factory.hpp:77] Creating layer conv2_2
I0119 18:44:13.123922 30922 net.cpp:84] Creating Layer conv2_2
I0119 18:44:13.123929 30922 net.cpp:406] conv2_2 <- conv2_1_relu2_1_0_split_0
I0119 18:44:13.123961 30922 net.cpp:380] conv2_2 -> conv2_2
I0119 18:44:13.127521 30922 net.cpp:122] Setting up conv2_2
I0119 18:44:13.127547 30922 net.cpp:129] Top shape: 256 128 28 24 (22020096)
I0119 18:44:13.127552 30922 net.cpp:137] Memory required for data: 2058882048
I0119 18:44:13.127564 30922 layer_factory.hpp:77] Creating layer relu2_2
I0119 18:44:13.127580 30922 net.cpp:84] Creating Layer relu2_2
I0119 18:44:13.127586 30922 net.cpp:406] relu2_2 <- conv2_2
I0119 18:44:13.127594 30922 net.cpp:367] relu2_2 -> conv2_2 (in-place)
I0119 18:44:13.127758 30922 net.cpp:122] Setting up relu2_2
I0119 18:44:13.127773 30922 net.cpp:129] Top shape: 256 128 28 24 (22020096)
I0119 18:44:13.127776 30922 net.cpp:137] Memory required for data: 2146962432
I0119 18:44:13.127784 30922 layer_factory.hpp:77] Creating layer conv2_3
I0119 18:44:13.127799 30922 net.cpp:84] Creating Layer conv2_3
I0119 18:44:13.127804 30922 net.cpp:406] conv2_3 <- conv2_2
I0119 18:44:13.127811 30922 net.cpp:380] conv2_3 -> conv2_3
I0119 18:44:13.132354 30922 net.cpp:122] Setting up conv2_3
I0119 18:44:13.132374 30922 net.cpp:129] Top shape: 256 128 28 24 (22020096)
I0119 18:44:13.132406 30922 net.cpp:137] Memory required for data: 2235042816
I0119 18:44:13.132424 30922 layer_factory.hpp:77] Creating layer relu2_3
I0119 18:44:13.132455 30922 net.cpp:84] Creating Layer relu2_3
I0119 18:44:13.132478 30922 net.cpp:406] relu2_3 <- conv2_3
I0119 18:44:13.132485 30922 net.cpp:367] relu2_3 -> conv2_3 (in-place)
I0119 18:44:13.132658 30922 net.cpp:122] Setting up relu2_3
I0119 18:44:13.132670 30922 net.cpp:129] Top shape: 256 128 28 24 (22020096)
I0119 18:44:13.132674 30922 net.cpp:137] Memory required for data: 2323123200
I0119 18:44:13.132681 30922 layer_factory.hpp:77] Creating layer res2_3
I0119 18:44:13.132694 30922 net.cpp:84] Creating Layer res2_3
I0119 18:44:13.132699 30922 net.cpp:406] res2_3 <- conv2_1_relu2_1_0_split_1
I0119 18:44:13.132704 30922 net.cpp:406] res2_3 <- conv2_3
I0119 18:44:13.132719 30922 net.cpp:380] res2_3 -> res2_3
I0119 18:44:13.132756 30922 net.cpp:122] Setting up res2_3
I0119 18:44:13.132766 30922 net.cpp:129] Top shape: 256 128 28 24 (22020096)
I0119 18:44:13.132771 30922 net.cpp:137] Memory required for data: 2411203584
I0119 18:44:13.132776 30922 layer_factory.hpp:77] Creating layer res2_3_res2_3_0_split
I0119 18:44:13.132786 30922 net.cpp:84] Creating Layer res2_3_res2_3_0_split
I0119 18:44:13.132791 30922 net.cpp:406] res2_3_res2_3_0_split <- res2_3
I0119 18:44:13.132798 30922 net.cpp:380] res2_3_res2_3_0_split -> res2_3_res2_3_0_split_0
I0119 18:44:13.132812 30922 net.cpp:380] res2_3_res2_3_0_split -> res2_3_res2_3_0_split_1
I0119 18:44:13.132870 30922 net.cpp:122] Setting up res2_3_res2_3_0_split
I0119 18:44:13.132884 30922 net.cpp:129] Top shape: 256 128 28 24 (22020096)
I0119 18:44:13.132889 30922 net.cpp:129] Top shape: 256 128 28 24 (22020096)
I0119 18:44:13.132894 30922 net.cpp:137] Memory required for data: 2587364352
I0119 18:44:13.132897 30922 layer_factory.hpp:77] Creating layer conv2_4
I0119 18:44:13.132910 30922 net.cpp:84] Creating Layer conv2_4
I0119 18:44:13.132915 30922 net.cpp:406] conv2_4 <- res2_3_res2_3_0_split_0
I0119 18:44:13.132936 30922 net.cpp:380] conv2_4 -> conv2_4
I0119 18:44:13.136304 30922 net.cpp:122] Setting up conv2_4
I0119 18:44:13.136322 30922 net.cpp:129] Top shape: 256 128 28 24 (22020096)
I0119 18:44:13.136327 30922 net.cpp:137] Memory required for data: 2675444736
I0119 18:44:13.136335 30922 layer_factory.hpp:77] Creating layer relu2_4
I0119 18:44:13.136348 30922 net.cpp:84] Creating Layer relu2_4
I0119 18:44:13.136353 30922 net.cpp:406] relu2_4 <- conv2_4
I0119 18:44:13.136371 30922 net.cpp:367] relu2_4 -> conv2_4 (in-place)
I0119 18:44:13.136535 30922 net.cpp:122] Setting up relu2_4
I0119 18:44:13.136548 30922 net.cpp:129] Top shape: 256 128 28 24 (22020096)
I0119 18:44:13.136553 30922 net.cpp:137] Memory required for data: 2763525120
I0119 18:44:13.136559 30922 layer_factory.hpp:77] Creating layer conv2_5
I0119 18:44:13.136571 30922 net.cpp:84] Creating Layer conv2_5
I0119 18:44:13.136576 30922 net.cpp:406] conv2_5 <- conv2_4
I0119 18:44:13.136617 30922 net.cpp:380] conv2_5 -> conv2_5
I0119 18:44:13.141021 30922 net.cpp:122] Setting up conv2_5
I0119 18:44:13.141052 30922 net.cpp:129] Top shape: 256 128 28 24 (22020096)
I0119 18:44:13.141057 30922 net.cpp:137] Memory required for data: 2851605504
I0119 18:44:13.141065 30922 layer_factory.hpp:77] Creating layer relu2_5
I0119 18:44:13.141072 30922 net.cpp:84] Creating Layer relu2_5
I0119 18:44:13.141077 30922 net.cpp:406] relu2_5 <- conv2_5
I0119 18:44:13.141085 30922 net.cpp:367] relu2_5 -> conv2_5 (in-place)
I0119 18:44:13.141260 30922 net.cpp:122] Setting up relu2_5
I0119 18:44:13.141273 30922 net.cpp:129] Top shape: 256 128 28 24 (22020096)
I0119 18:44:13.141278 30922 net.cpp:137] Memory required for data: 2939685888
I0119 18:44:13.141285 30922 layer_factory.hpp:77] Creating layer res2_5
I0119 18:44:13.141294 30922 net.cpp:84] Creating Layer res2_5
I0119 18:44:13.141299 30922 net.cpp:406] res2_5 <- res2_3_res2_3_0_split_1
I0119 18:44:13.141304 30922 net.cpp:406] res2_5 <- conv2_5
I0119 18:44:13.141322 30922 net.cpp:380] res2_5 -> res2_5
I0119 18:44:13.141356 30922 net.cpp:122] Setting up res2_5
I0119 18:44:13.141366 30922 net.cpp:129] Top shape: 256 128 28 24 (22020096)
I0119 18:44:13.141371 30922 net.cpp:137] Memory required for data: 3027766272
I0119 18:44:13.141374 30922 layer_factory.hpp:77] Creating layer conv3_1
I0119 18:44:13.141399 30922 net.cpp:84] Creating Layer conv3_1
I0119 18:44:13.141407 30922 net.cpp:406] conv3_1 <- res2_5
I0119 18:44:13.141415 30922 net.cpp:380] conv3_1 -> conv3_1
I0119 18:44:13.146037 30922 net.cpp:122] Setting up conv3_1
I0119 18:44:13.146056 30922 net.cpp:129] Top shape: 256 256 14 12 (11010048)
I0119 18:44:13.146060 30922 net.cpp:137] Memory required for data: 3071806464
I0119 18:44:13.146069 30922 layer_factory.hpp:77] Creating layer relu3_1
I0119 18:44:13.146076 30922 net.cpp:84] Creating Layer relu3_1
I0119 18:44:13.146081 30922 net.cpp:406] relu3_1 <- conv3_1
I0119 18:44:13.146090 30922 net.cpp:367] relu3_1 -> conv3_1 (in-place)
I0119 18:44:13.146263 30922 net.cpp:122] Setting up relu3_1
I0119 18:44:13.146278 30922 net.cpp:129] Top shape: 256 256 14 12 (11010048)
I0119 18:44:13.146283 30922 net.cpp:137] Memory required for data: 3115846656
I0119 18:44:13.146289 30922 layer_factory.hpp:77] Creating layer conv3_1_relu3_1_0_split
I0119 18:44:13.146298 30922 net.cpp:84] Creating Layer conv3_1_relu3_1_0_split
I0119 18:44:13.146303 30922 net.cpp:406] conv3_1_relu3_1_0_split <- conv3_1
I0119 18:44:13.146309 30922 net.cpp:380] conv3_1_relu3_1_0_split -> conv3_1_relu3_1_0_split_0
I0119 18:44:13.146333 30922 net.cpp:380] conv3_1_relu3_1_0_split -> conv3_1_relu3_1_0_split_1
I0119 18:44:13.146397 30922 net.cpp:122] Setting up conv3_1_relu3_1_0_split
I0119 18:44:13.146409 30922 net.cpp:129] Top shape: 256 256 14 12 (11010048)
I0119 18:44:13.146414 30922 net.cpp:129] Top shape: 256 256 14 12 (11010048)
I0119 18:44:13.146417 30922 net.cpp:137] Memory required for data: 3203927040
I0119 18:44:13.146421 30922 layer_factory.hpp:77] Creating layer conv3_2
I0119 18:44:13.146435 30922 net.cpp:84] Creating Layer conv3_2
I0119 18:44:13.146440 30922 net.cpp:406] conv3_2 <- conv3_1_relu3_1_0_split_0
I0119 18:44:13.146448 30922 net.cpp:380] conv3_2 -> conv3_2
I0119 18:44:13.156186 30922 net.cpp:122] Setting up conv3_2
I0119 18:44:13.156216 30922 net.cpp:129] Top shape: 256 256 14 12 (11010048)
I0119 18:44:13.156222 30922 net.cpp:137] Memory required for data: 3247967232
I0119 18:44:13.156230 30922 layer_factory.hpp:77] Creating layer relu3_2
I0119 18:44:13.156240 30922 net.cpp:84] Creating Layer relu3_2
I0119 18:44:13.156245 30922 net.cpp:406] relu3_2 <- conv3_2
I0119 18:44:13.156252 30922 net.cpp:367] relu3_2 -> conv3_2 (in-place)
I0119 18:44:13.156430 30922 net.cpp:122] Setting up relu3_2
I0119 18:44:13.156446 30922 net.cpp:129] Top shape: 256 256 14 12 (11010048)
I0119 18:44:13.156451 30922 net.cpp:137] Memory required for data: 3292007424
I0119 18:44:13.156457 30922 layer_factory.hpp:77] Creating layer conv3_3
I0119 18:44:13.156471 30922 net.cpp:84] Creating Layer conv3_3
I0119 18:44:13.156503 30922 net.cpp:406] conv3_3 <- conv3_2
I0119 18:44:13.156515 30922 net.cpp:380] conv3_3 -> conv3_3
I0119 18:44:13.166298 30922 net.cpp:122] Setting up conv3_3
I0119 18:44:13.166316 30922 net.cpp:129] Top shape: 256 256 14 12 (11010048)
I0119 18:44:13.166321 30922 net.cpp:137] Memory required for data: 3336047616
I0119 18:44:13.166328 30922 layer_factory.hpp:77] Creating layer relu3_3
I0119 18:44:13.166338 30922 net.cpp:84] Creating Layer relu3_3
I0119 18:44:13.166343 30922 net.cpp:406] relu3_3 <- conv3_3
I0119 18:44:13.166362 30922 net.cpp:367] relu3_3 -> conv3_3 (in-place)
I0119 18:44:13.166532 30922 net.cpp:122] Setting up relu3_3
I0119 18:44:13.166558 30922 net.cpp:129] Top shape: 256 256 14 12 (11010048)
I0119 18:44:13.166563 30922 net.cpp:137] Memory required for data: 3380087808
I0119 18:44:13.166576 30922 layer_factory.hpp:77] Creating layer res3_3
I0119 18:44:13.166589 30922 net.cpp:84] Creating Layer res3_3
I0119 18:44:13.166594 30922 net.cpp:406] res3_3 <- conv3_1_relu3_1_0_split_1
I0119 18:44:13.166599 30922 net.cpp:406] res3_3 <- conv3_3
I0119 18:44:13.166618 30922 net.cpp:380] res3_3 -> res3_3
I0119 18:44:13.166656 30922 net.cpp:122] Setting up res3_3
I0119 18:44:13.166666 30922 net.cpp:129] Top shape: 256 256 14 12 (11010048)
I0119 18:44:13.166683 30922 net.cpp:137] Memory required for data: 3424128000
I0119 18:44:13.166687 30922 layer_factory.hpp:77] Creating layer res3_3_res3_3_0_split
I0119 18:44:13.166702 30922 net.cpp:84] Creating Layer res3_3_res3_3_0_split
I0119 18:44:13.166707 30922 net.cpp:406] res3_3_res3_3_0_split <- res3_3
I0119 18:44:13.166713 30922 net.cpp:380] res3_3_res3_3_0_split -> res3_3_res3_3_0_split_0
I0119 18:44:13.166721 30922 net.cpp:380] res3_3_res3_3_0_split -> res3_3_res3_3_0_split_1
I0119 18:44:13.166781 30922 net.cpp:122] Setting up res3_3_res3_3_0_split
I0119 18:44:13.166793 30922 net.cpp:129] Top shape: 256 256 14 12 (11010048)
I0119 18:44:13.166800 30922 net.cpp:129] Top shape: 256 256 14 12 (11010048)
I0119 18:44:13.166803 30922 net.cpp:137] Memory required for data: 3512208384
I0119 18:44:13.166810 30922 layer_factory.hpp:77] Creating layer conv3_4
I0119 18:44:13.166823 30922 net.cpp:84] Creating Layer conv3_4
I0119 18:44:13.166829 30922 net.cpp:406] conv3_4 <- res3_3_res3_3_0_split_0
I0119 18:44:13.166838 30922 net.cpp:380] conv3_4 -> conv3_4
I0119 18:44:13.176492 30922 net.cpp:122] Setting up conv3_4
I0119 18:44:13.176520 30922 net.cpp:129] Top shape: 256 256 14 12 (11010048)
I0119 18:44:13.176527 30922 net.cpp:137] Memory required for data: 3556248576
I0119 18:44:13.176534 30922 layer_factory.hpp:77] Creating layer relu3_4
I0119 18:44:13.176544 30922 net.cpp:84] Creating Layer relu3_4
I0119 18:44:13.176549 30922 net.cpp:406] relu3_4 <- conv3_4
I0119 18:44:13.176556 30922 net.cpp:367] relu3_4 -> conv3_4 (in-place)
I0119 18:44:13.176728 30922 net.cpp:122] Setting up relu3_4
I0119 18:44:13.176741 30922 net.cpp:129] Top shape: 256 256 14 12 (11010048)
I0119 18:44:13.176745 30922 net.cpp:137] Memory required for data: 3600288768
I0119 18:44:13.176751 30922 layer_factory.hpp:77] Creating layer conv3_5
I0119 18:44:13.176766 30922 net.cpp:84] Creating Layer conv3_5
I0119 18:44:13.176772 30922 net.cpp:406] conv3_5 <- conv3_4
I0119 18:44:13.176781 30922 net.cpp:380] conv3_5 -> conv3_5
I0119 18:44:13.186414 30922 net.cpp:122] Setting up conv3_5
I0119 18:44:13.186430 30922 net.cpp:129] Top shape: 256 256 14 12 (11010048)
I0119 18:44:13.186447 30922 net.cpp:137] Memory required for data: 3644328960
I0119 18:44:13.186456 30922 layer_factory.hpp:77] Creating layer relu3_5
I0119 18:44:13.186465 30922 net.cpp:84] Creating Layer relu3_5
I0119 18:44:13.186470 30922 net.cpp:406] relu3_5 <- conv3_5
I0119 18:44:13.186477 30922 net.cpp:367] relu3_5 -> conv3_5 (in-place)
I0119 18:44:13.186673 30922 net.cpp:122] Setting up relu3_5
I0119 18:44:13.186686 30922 net.cpp:129] Top shape: 256 256 14 12 (11010048)
I0119 18:44:13.186689 30922 net.cpp:137] Memory required for data: 3688369152
I0119 18:44:13.186695 30922 layer_factory.hpp:77] Creating layer res3_5
I0119 18:44:13.186728 30922 net.cpp:84] Creating Layer res3_5
I0119 18:44:13.186734 30922 net.cpp:406] res3_5 <- res3_3_res3_3_0_split_1
I0119 18:44:13.186740 30922 net.cpp:406] res3_5 <- conv3_5
I0119 18:44:13.186749 30922 net.cpp:380] res3_5 -> res3_5
I0119 18:44:13.186807 30922 net.cpp:122] Setting up res3_5
I0119 18:44:13.186818 30922 net.cpp:129] Top shape: 256 256 14 12 (11010048)
I0119 18:44:13.186822 30922 net.cpp:137] Memory required for data: 3732409344
I0119 18:44:13.186827 30922 layer_factory.hpp:77] Creating layer res3_5_res3_5_0_split
I0119 18:44:13.186846 30922 net.cpp:84] Creating Layer res3_5_res3_5_0_split
I0119 18:44:13.186851 30922 net.cpp:406] res3_5_res3_5_0_split <- res3_5
I0119 18:44:13.186859 30922 net.cpp:380] res3_5_res3_5_0_split -> res3_5_res3_5_0_split_0
I0119 18:44:13.186873 30922 net.cpp:380] res3_5_res3_5_0_split -> res3_5_res3_5_0_split_1
I0119 18:44:13.186934 30922 net.cpp:122] Setting up res3_5_res3_5_0_split
I0119 18:44:13.186946 30922 net.cpp:129] Top shape: 256 256 14 12 (11010048)
I0119 18:44:13.186954 30922 net.cpp:129] Top shape: 256 256 14 12 (11010048)
I0119 18:44:13.186959 30922 net.cpp:137] Memory required for data: 3820489728
I0119 18:44:13.186964 30922 layer_factory.hpp:77] Creating layer conv3_6
I0119 18:44:13.186991 30922 net.cpp:84] Creating Layer conv3_6
I0119 18:44:13.186998 30922 net.cpp:406] conv3_6 <- res3_5_res3_5_0_split_0
I0119 18:44:13.187005 30922 net.cpp:380] conv3_6 -> conv3_6
I0119 18:44:13.196610 30922 net.cpp:122] Setting up conv3_6
I0119 18:44:13.196638 30922 net.cpp:129] Top shape: 256 256 14 12 (11010048)
I0119 18:44:13.196643 30922 net.cpp:137] Memory required for data: 3864529920
I0119 18:44:13.196651 30922 layer_factory.hpp:77] Creating layer relu3_6
I0119 18:44:13.196660 30922 net.cpp:84] Creating Layer relu3_6
I0119 18:44:13.196665 30922 net.cpp:406] relu3_6 <- conv3_6
I0119 18:44:13.196672 30922 net.cpp:367] relu3_6 -> conv3_6 (in-place)
I0119 18:44:13.196828 30922 net.cpp:122] Setting up relu3_6
I0119 18:44:13.196843 30922 net.cpp:129] Top shape: 256 256 14 12 (11010048)
I0119 18:44:13.196847 30922 net.cpp:137] Memory required for data: 3908570112
I0119 18:44:13.196853 30922 layer_factory.hpp:77] Creating layer conv3_7
I0119 18:44:13.196877 30922 net.cpp:84] Creating Layer conv3_7
I0119 18:44:13.196883 30922 net.cpp:406] conv3_7 <- conv3_6
I0119 18:44:13.196892 30922 net.cpp:380] conv3_7 -> conv3_7
I0119 18:44:13.206693 30922 net.cpp:122] Setting up conv3_7
I0119 18:44:13.206712 30922 net.cpp:129] Top shape: 256 256 14 12 (11010048)
I0119 18:44:13.206717 30922 net.cpp:137] Memory required for data: 3952610304
I0119 18:44:13.206727 30922 layer_factory.hpp:77] Creating layer relu3_7
I0119 18:44:13.206735 30922 net.cpp:84] Creating Layer relu3_7
I0119 18:44:13.206740 30922 net.cpp:406] relu3_7 <- conv3_7
I0119 18:44:13.206761 30922 net.cpp:367] relu3_7 -> conv3_7 (in-place)
I0119 18:44:13.206925 30922 net.cpp:122] Setting up relu3_7
I0119 18:44:13.206940 30922 net.cpp:129] Top shape: 256 256 14 12 (11010048)
I0119 18:44:13.206944 30922 net.cpp:137] Memory required for data: 3996650496
I0119 18:44:13.206950 30922 layer_factory.hpp:77] Creating layer res3_7
I0119 18:44:13.206959 30922 net.cpp:84] Creating Layer res3_7
I0119 18:44:13.206964 30922 net.cpp:406] res3_7 <- res3_5_res3_5_0_split_1
I0119 18:44:13.206969 30922 net.cpp:406] res3_7 <- conv3_7
I0119 18:44:13.206990 30922 net.cpp:380] res3_7 -> res3_7
I0119 18:44:13.207026 30922 net.cpp:122] Setting up res3_7
I0119 18:44:13.207051 30922 net.cpp:129] Top shape: 256 256 14 12 (11010048)
I0119 18:44:13.207054 30922 net.cpp:137] Memory required for data: 4040690688
I0119 18:44:13.207059 30922 layer_factory.hpp:77] Creating layer res3_7_res3_7_0_split
I0119 18:44:13.207065 30922 net.cpp:84] Creating Layer res3_7_res3_7_0_split
I0119 18:44:13.207070 30922 net.cpp:406] res3_7_res3_7_0_split <- res3_7
I0119 18:44:13.207077 30922 net.cpp:380] res3_7_res3_7_0_split -> res3_7_res3_7_0_split_0
I0119 18:44:13.207087 30922 net.cpp:380] res3_7_res3_7_0_split -> res3_7_res3_7_0_split_1
I0119 18:44:13.207165 30922 net.cpp:122] Setting up res3_7_res3_7_0_split
I0119 18:44:13.207192 30922 net.cpp:129] Top shape: 256 256 14 12 (11010048)
I0119 18:44:13.207198 30922 net.cpp:129] Top shape: 256 256 14 12 (11010048)
I0119 18:44:13.207202 30922 net.cpp:137] Memory required for data: 4128771072
I0119 18:44:13.207207 30922 layer_factory.hpp:77] Creating layer conv3_8
I0119 18:44:13.207221 30922 net.cpp:84] Creating Layer conv3_8
I0119 18:44:13.207227 30922 net.cpp:406] conv3_8 <- res3_7_res3_7_0_split_0
I0119 18:44:13.207247 30922 net.cpp:380] conv3_8 -> conv3_8
I0119 18:44:13.216847 30922 net.cpp:122] Setting up conv3_8
I0119 18:44:13.216876 30922 net.cpp:129] Top shape: 256 256 14 12 (11010048)
I0119 18:44:13.216881 30922 net.cpp:137] Memory required for data: 4172811264
I0119 18:44:13.216889 30922 layer_factory.hpp:77] Creating layer relu3_8
I0119 18:44:13.216897 30922 net.cpp:84] Creating Layer relu3_8
I0119 18:44:13.216902 30922 net.cpp:406] relu3_8 <- conv3_8
I0119 18:44:13.216910 30922 net.cpp:367] relu3_8 -> conv3_8 (in-place)
I0119 18:44:13.217085 30922 net.cpp:122] Setting up relu3_8
I0119 18:44:13.217101 30922 net.cpp:129] Top shape: 256 256 14 12 (11010048)
I0119 18:44:13.217105 30922 net.cpp:137] Memory required for data: 4216851456
I0119 18:44:13.217111 30922 layer_factory.hpp:77] Creating layer conv3_9
I0119 18:44:13.217123 30922 net.cpp:84] Creating Layer conv3_9
I0119 18:44:13.217129 30922 net.cpp:406] conv3_9 <- conv3_8
I0119 18:44:13.217136 30922 net.cpp:380] conv3_9 -> conv3_9
I0119 18:44:13.226733 30922 net.cpp:122] Setting up conv3_9
I0119 18:44:13.226763 30922 net.cpp:129] Top shape: 256 256 14 12 (11010048)
I0119 18:44:13.226768 30922 net.cpp:137] Memory required for data: 4260891648
I0119 18:44:13.226778 30922 layer_factory.hpp:77] Creating layer relu3_9
I0119 18:44:13.226788 30922 net.cpp:84] Creating Layer relu3_9
I0119 18:44:13.226794 30922 net.cpp:406] relu3_9 <- conv3_9
I0119 18:44:13.226800 30922 net.cpp:367] relu3_9 -> conv3_9 (in-place)
I0119 18:44:13.226974 30922 net.cpp:122] Setting up relu3_9
I0119 18:44:13.226989 30922 net.cpp:129] Top shape: 256 256 14 12 (11010048)
I0119 18:44:13.226994 30922 net.cpp:137] Memory required for data: 4304931840
I0119 18:44:13.227000 30922 layer_factory.hpp:77] Creating layer res3_9
I0119 18:44:13.227008 30922 net.cpp:84] Creating Layer res3_9
I0119 18:44:13.227013 30922 net.cpp:406] res3_9 <- res3_7_res3_7_0_split_1
I0119 18:44:13.227031 30922 net.cpp:406] res3_9 <- conv3_9
I0119 18:44:13.227041 30922 net.cpp:380] res3_9 -> res3_9
I0119 18:44:13.227077 30922 net.cpp:122] Setting up res3_9
I0119 18:44:13.227087 30922 net.cpp:129] Top shape: 256 256 14 12 (11010048)
I0119 18:44:13.227089 30922 net.cpp:137] Memory required for data: 4348972032
I0119 18:44:13.227093 30922 layer_factory.hpp:77] Creating layer conv4_1
I0119 18:44:13.227108 30922 net.cpp:84] Creating Layer conv4_1
I0119 18:44:13.227115 30922 net.cpp:406] conv4_1 <- res3_9
I0119 18:44:13.227123 30922 net.cpp:380] conv4_1 -> conv4_1
I0119 18:44:13.238759 30922 net.cpp:122] Setting up conv4_1
I0119 18:44:13.238777 30922 net.cpp:129] Top shape: 256 512 7 6 (5505024)
I0119 18:44:13.238782 30922 net.cpp:137] Memory required for data: 4370992128
I0119 18:44:13.238792 30922 layer_factory.hpp:77] Creating layer relu4_1
I0119 18:44:13.238802 30922 net.cpp:84] Creating Layer relu4_1
I0119 18:44:13.238807 30922 net.cpp:406] relu4_1 <- conv4_1
I0119 18:44:13.238826 30922 net.cpp:367] relu4_1 -> conv4_1 (in-place)
I0119 18:44:13.238981 30922 net.cpp:122] Setting up relu4_1
I0119 18:44:13.238992 30922 net.cpp:129] Top shape: 256 512 7 6 (5505024)
I0119 18:44:13.238997 30922 net.cpp:137] Memory required for data: 4393012224
I0119 18:44:13.239003 30922 layer_factory.hpp:77] Creating layer conv4_1_relu4_1_0_split
I0119 18:44:13.239011 30922 net.cpp:84] Creating Layer conv4_1_relu4_1_0_split
I0119 18:44:13.239015 30922 net.cpp:406] conv4_1_relu4_1_0_split <- conv4_1
I0119 18:44:13.239023 30922 net.cpp:380] conv4_1_relu4_1_0_split -> conv4_1_relu4_1_0_split_0
I0119 18:44:13.239032 30922 net.cpp:380] conv4_1_relu4_1_0_split -> conv4_1_relu4_1_0_split_1
I0119 18:44:13.239100 30922 net.cpp:122] Setting up conv4_1_relu4_1_0_split
I0119 18:44:13.239111 30922 net.cpp:129] Top shape: 256 512 7 6 (5505024)
I0119 18:44:13.239116 30922 net.cpp:129] Top shape: 256 512 7 6 (5505024)
I0119 18:44:13.239120 30922 net.cpp:137] Memory required for data: 4437052416
I0119 18:44:13.239125 30922 layer_factory.hpp:77] Creating layer conv4_2
I0119 18:44:13.239136 30922 net.cpp:84] Creating Layer conv4_2
I0119 18:44:13.239141 30922 net.cpp:406] conv4_2 <- conv4_1_relu4_1_0_split_0
I0119 18:44:13.239151 30922 net.cpp:380] conv4_2 -> conv4_2
I0119 18:44:13.270794 30922 net.cpp:122] Setting up conv4_2
I0119 18:44:13.270829 30922 net.cpp:129] Top shape: 256 512 7 6 (5505024)
I0119 18:44:13.270834 30922 net.cpp:137] Memory required for data: 4459072512
I0119 18:44:13.270843 30922 layer_factory.hpp:77] Creating layer relu4_2
I0119 18:44:13.270851 30922 net.cpp:84] Creating Layer relu4_2
I0119 18:44:13.270856 30922 net.cpp:406] relu4_2 <- conv4_2
I0119 18:44:13.270865 30922 net.cpp:367] relu4_2 -> conv4_2 (in-place)
I0119 18:44:13.271034 30922 net.cpp:122] Setting up relu4_2
I0119 18:44:13.271046 30922 net.cpp:129] Top shape: 256 512 7 6 (5505024)
I0119 18:44:13.271050 30922 net.cpp:137] Memory required for data: 4481092608
I0119 18:44:13.271056 30922 layer_factory.hpp:77] Creating layer conv4_3
I0119 18:44:13.271070 30922 net.cpp:84] Creating Layer conv4_3
I0119 18:44:13.271075 30922 net.cpp:406] conv4_3 <- conv4_2
I0119 18:44:13.271093 30922 net.cpp:380] conv4_3 -> conv4_3
I0119 18:44:13.303053 30922 net.cpp:122] Setting up conv4_3
I0119 18:44:13.303079 30922 net.cpp:129] Top shape: 256 512 7 6 (5505024)
I0119 18:44:13.303083 30922 net.cpp:137] Memory required for data: 4503112704
I0119 18:44:13.303093 30922 layer_factory.hpp:77] Creating layer relu4_3
I0119 18:44:13.303107 30922 net.cpp:84] Creating Layer relu4_3
I0119 18:44:13.303113 30922 net.cpp:406] relu4_3 <- conv4_3
I0119 18:44:13.303133 30922 net.cpp:367] relu4_3 -> conv4_3 (in-place)
I0119 18:44:13.304419 30922 net.cpp:122] Setting up relu4_3
I0119 18:44:13.304435 30922 net.cpp:129] Top shape: 256 512 7 6 (5505024)
I0119 18:44:13.304440 30922 net.cpp:137] Memory required for data: 4525132800
I0119 18:44:13.304447 30922 layer_factory.hpp:77] Creating layer res4_3
I0119 18:44:13.304462 30922 net.cpp:84] Creating Layer res4_3
I0119 18:44:13.304481 30922 net.cpp:406] res4_3 <- conv4_1_relu4_1_0_split_1
I0119 18:44:13.304488 30922 net.cpp:406] res4_3 <- conv4_3
I0119 18:44:13.304497 30922 net.cpp:380] res4_3 -> res4_3
I0119 18:44:13.304538 30922 net.cpp:122] Setting up res4_3
I0119 18:44:13.304548 30922 net.cpp:129] Top shape: 256 512 7 6 (5505024)
I0119 18:44:13.304553 30922 net.cpp:137] Memory required for data: 4547152896
I0119 18:44:13.304558 30922 layer_factory.hpp:77] Creating layer fc5
I0119 18:44:13.304567 30922 net.cpp:84] Creating Layer fc5
I0119 18:44:13.304576 30922 net.cpp:406] fc5 <- res4_3
I0119 18:44:13.304584 30922 net.cpp:380] fc5 -> fc5
I0119 18:44:13.401768 30922 net.cpp:122] Setting up fc5
I0119 18:44:13.401810 30922 net.cpp:129] Top shape: 256 512 (131072)
I0119 18:44:13.401815 30922 net.cpp:137] Memory required for data: 4547677184
I0119 18:44:13.401829 30922 layer_factory.hpp:77] Creating layer norm1
I0119 18:44:13.401844 30922 net.cpp:84] Creating Layer norm1
I0119 18:44:13.401852 30922 net.cpp:406] norm1 <- fc5
I0119 18:44:13.401877 30922 net.cpp:380] norm1 -> norm1
I0119 18:44:13.401968 30922 net.cpp:122] Setting up norm1
I0119 18:44:13.401979 30922 net.cpp:129] Top shape: 256 512 1 1 (131072)
I0119 18:44:13.401984 30922 net.cpp:137] Memory required for data: 4548201472
I0119 18:44:13.401988 30922 layer_factory.hpp:77] Creating layer fc6_l2
I0119 18:44:13.402000 30922 net.cpp:84] Creating Layer fc6_l2
I0119 18:44:13.402019 30922 net.cpp:406] fc6_l2 <- norm1
I0119 18:44:13.402027 30922 net.cpp:380] fc6_l2 -> fc6
I0119 18:44:13.443732 30922 net.cpp:122] Setting up fc6_l2
I0119 18:44:13.443765 30922 net.cpp:129] Top shape: 256 9131 (2337536)
I0119 18:44:13.443770 30922 net.cpp:137] Memory required for data: 4557551616
I0119 18:44:13.443816 30922 layer_factory.hpp:77] Creating layer label_specific_margin
I0119 18:44:13.443835 30922 net.cpp:84] Creating Layer label_specific_margin
I0119 18:44:13.443843 30922 net.cpp:406] label_specific_margin <- fc6
I0119 18:44:13.443853 30922 net.cpp:406] label_specific_margin <- label_data_1_split_0
I0119 18:44:13.443862 30922 net.cpp:380] label_specific_margin -> fc6_margin
I0119 18:44:13.443935 30922 net.cpp:122] Setting up label_specific_margin
I0119 18:44:13.443948 30922 net.cpp:129] Top shape: 256 9131 (2337536)
I0119 18:44:13.443953 30922 net.cpp:137] Memory required for data: 4566901760
I0119 18:44:13.443958 30922 layer_factory.hpp:77] Creating layer fc6_margin_scale
I0119 18:44:13.443982 30922 net.cpp:84] Creating Layer fc6_margin_scale
I0119 18:44:13.443989 30922 net.cpp:406] fc6_margin_scale <- fc6_margin
I0119 18:44:13.443996 30922 net.cpp:380] fc6_margin_scale -> fc6_margin_scale
I0119 18:44:13.444141 30922 net.cpp:122] Setting up fc6_margin_scale
I0119 18:44:13.444154 30922 net.cpp:129] Top shape: 256 9131 (2337536)
I0119 18:44:13.444159 30922 net.cpp:137] Memory required for data: 4576251904
I0119 18:44:13.444165 30922 layer_factory.hpp:77] Creating layer softmax_loss
I0119 18:44:13.444175 30922 net.cpp:84] Creating Layer softmax_loss
I0119 18:44:13.444180 30922 net.cpp:406] softmax_loss <- fc6_margin_scale
I0119 18:44:13.444185 30922 net.cpp:406] softmax_loss <- label_data_1_split_1
I0119 18:44:13.444207 30922 net.cpp:380] softmax_loss -> softmax_loss
…
