…
stepvalue: 70000
iter_size: 1
I0129 17:58:13.413779 30839 solver.cpp:87] Creating training net from net file: face_train_test.prototxt
I0129 17:58:13.414692 30839 net.cpp:51] Initializing net from parameters: 
name: "Face-ResNet"
state {
  phase: TRAIN
  level: 0
  stage: ""
}
layer {
  name: "data"
  type: "ImageData"
  top: "data"
  top: "label"
  transform_param {
    scale: 0.0078125
    mirror: true
    mean_value: 128
  }
  image_data_param {
    source: "/data/vggface2/VGGFACE_train_list-112X96-add.txt"
    batch_size: 256
    shuffle: true
  }
}
layer {
  name: "conv1_1"
  type: "Convolution"
  bottom: "data"
  top: "conv1_1"
  param {
    lr_mult: 1
    decay_mult: 1
  }
  param {
    lr_mult: 2
    decay_mult: 0
  }
  convolution_param {
    num_output: 64
    pad: 1
    kernel_size: 3
    stride: 2
    weight_filler {
      type: "xavier"
    }
    bias_filler {
      type: "constant"
      value: 0
    }
  }
}
layer {
  name: "relu1_1"
  type: "PReLU"
  bottom: "conv1_1"
  top: "conv1_1"
}
layer {
  name: "conv1_2"
  type: "Convolution"
  bottom: "conv1_1"
  top: "conv1_2"
  param {
    lr_mult: 1
    decay_mult: 1
  }
  param {
    lr_mult: 0
    decay_mult: 0
  }
  convolution_param {
    num_output: 64
    pad: 1
    kernel_size: 3
    stride: 1
    weight_filler {
      type: "gaussian"
      std: 0.01
    }
    bias_filler {
      type: "constant"
      value: 0
    }
  }
}
layer {
  name: "relu1_2"
  type: "PReLU"
  bottom: "conv1_2"
  top: "conv1_2"
}
layer {
  name: "conv1_3"
  type: "Convolution"
  bottom: "conv1_2"
  top: "conv1_3"
  param {
    lr_mult: 1
    decay_mult: 1
  }
  param {
    lr_mult: 0
    decay_mult: 0
  }
  convolution_param {
    num_output: 64
    pad: 1
    kernel_size: 3
    stride: 1
    weight_filler {
      type: "gaussian"
      std: 0.01
    }
    bias_filler {
      type: "constant"
      value: 0
    }
  }
}
layer {
  name: "relu1_3"
  type: "PReLU"
  bottom: "conv1_3"
  top: "conv1_3"
}
layer {
  name: "res1_3"
  type: "Eltwise"
  bottom: "conv1_1"
  bottom: "conv1_3"
  top: "res1_3"
  eltwise_param {
    operation: SUM
  }
}
layer {
  name: "conv2_1"
  type: "Convolution"
  bottom: "res1_3"
  top: "conv2_1"
  param {
    lr_mult: 1
    decay_mult: 1
  }
  param {
    lr_mult: 2
    decay_mult: 0
  }
  convolution_param {
    num_output: 128
    pad: 1
    kernel_size: 3
    stride: 2
    weight_filler {
      type: "xavier"
    }
    bias_filler {
      type: "constant"
      value: 0
    }
  }
}
layer {
  name: "relu2_1"
  type: "PReLU"
  bottom: "conv2_1"
  top: "conv2_1"
}
layer {
  name: "conv2_2"
  type: "Convolution"
  bottom: "conv2_1"
  top: "conv2_2"
  param {
    lr_mult: 1
    decay_mult: 1
  }
  param {
    lr_mult: 0
    decay_mult: 0
  }
  convolution_param {
    num_output: 128
    pad: 1
    kernel_size: 3
    stride: 1
    weight_filler {
      type: "gaussian"
      std: 0.01
    }
    bias_filler {
      type: "constant"
      value: 0
    }
  }
}
layer {
  name: "relu2_2"
  type: "PReLU"
  bottom: "conv2_2"
  top: "conv2_2"
}
layer {
  name: "conv2_3"
  type: "Convolution"
  bottom: "conv2_2"
  top: "conv2_3"
  param {
    lr_mult: 1
    decay_mult: 1
  }
  param {
    lr_mult: 0
    decay_mult: 0
  }
  convolution_param {
    num_output: 128
    pad: 1
    kernel_size: 3
    stride: 1
    weight_filler {
      type: "gaussian"
      std: 0.01
    }
    bias_filler {
      type: "constant"
      value: 0
    }
  }
}
layer {
  name: "relu2_3"
  type: "PReLU"
  bottom: "conv2_3"
  top: "conv2_3"
}
layer {
  name: "res2_3"
  type: "Eltwise"
  bottom: "conv2_1"
  bottom: "conv2_3"
  top: "res2_3"
  eltwise_param {
    operation: SUM
  }
}
layer {
  name: "conv2_4"
  type: "Convolution"
  bottom: "res2_3"
  top: "conv2_4"
  param {
    lr_mult: 1
    decay_mult: 1
  }
  param {
    lr_mult: 0
    decay_mult: 0
  }
  convolution_param {
    num_output: 128
    pad: 1
    kernel_size: 3
    stride: 1
    weight_filler {
      type: "gaussian"
      std: 0.01
    }
    bias_filler {
      type: "constant"
      value: 0
    }
  }
}
layer {
  name: "relu2_4"
  type: "PReLU"
  bottom: "conv2_4"
  top: "conv2_4"
}
layer {
  name: "conv2_5"
  type: "Convolution"
  bottom: "conv2_4"
  top: "conv2_5"
  param {
    lr_mult: 1
    decay_mult: 1
  }
  param {
    lr_mult: 0
    decay_mult: 0
  }
  convolution_param {
    num_output: 128
    pad: 1
    kernel_size: 3
    stride: 1
    weight_filler {
      type: "gaussian"
      std: 0.01
    }
    bias_filler {
      type: "constant"
      value: 0
    }
  }
}
layer {
  name: "relu2_5"
  type: "PReLU"
  bottom: "conv2_5"
  top: "conv2_5"
}
layer {
  name: "res2_5"
  type: "Eltwise"
  bottom: "res2_3"
  bottom: "conv2_5"
  top: "res2_5"
  eltwise_param {
    operation: SUM
  }
}
layer {
  name: "conv3_1"
  type: "Convolution"
  bottom: "res2_5"
  top: "conv3_1"
  param {
    lr_mult: 1
    decay_mult: 1
  }
  param {
    lr_mult: 2
    decay_mult: 0
  }
  convolution_param {
    num_output: 256
    pad: 1
    kernel_size: 3
    stride: 2
    weight_filler {
      type: "xavier"
    }
    bias_filler {
      type: "constant"
      value: 0
    }
  }
}
layer {
  name: "relu3_1"
  type: "PReLU"
  bottom: "conv3_1"
  top: "conv3_1"
}
layer {
  name: "conv3_2"
  type: "Convolution"
  bottom: "conv3_1"
  top: "conv3_2"
  param {
    lr_mult: 1
    decay_mult: 1
  }
  param {
    lr_mult: 0
    decay_mult: 0
  }
  convolution_param {
    num_output: 256
    pad: 1
    kernel_size: 3
    stride: 1
    weight_filler {
      type: "gaussian"
      std: 0.01
    }
    bias_filler {
      type: "constant"
      value: 0
    }
  }
}
layer {
  name: "relu3_2"
  type: "PReLU"
  bottom: "conv3_2"
  top: "conv3_2"
}
layer {
  name: "conv3_3"
  type: "Convolution"
  bottom: "conv3_2"
  top: "conv3_3"
  param {
    lr_mult: 1
    decay_mult: 1
  }
  param {
    lr_mult: 0
    decay_mult: 0
  }
  convolution_param {
    num_output: 256
    pad: 1
    kernel_size: 3
    stride: 1
    weight_filler {
      type: "gaussian"
      std: 0.01
    }
    bias_filler {
      type: "constant"
      value: 0
    }
  }
}
layer {
  name: "relu3_3"
  type: "PReLU"
  bottom: "conv3_3"
  top: "conv3_3"
}
layer {
  name: "res3_3"
  type: "Eltwise"
  bottom: "conv3_1"
  bottom: "conv3_3"
  top: "res3_3"
  eltwise_param {
    operation: SUM
  }
}
layer {
  name: "conv3_4"
  type: "Convolution"
  bottom: "res3_3"
  top: "conv3_4"
  param {
    lr_mult: 1
    decay_mult: 1
  }
  param {
    lr_mult: 0
    decay_mult: 0
  }
  convolution_param {
    num_output: 256
    pad: 1
    kernel_size: 3
    stride: 1
    weight_filler {
      type: "gaussian"
      std: 0.01
    }
    bias_filler {
      type: "constant"
      value: 0
    }
  }
}
layer {
  name: "relu3_4"
  type: "PReLU"
  bottom: "conv3_4"
  top: "conv3_4"
}
layer {
  name: "conv3_5"
  type: "Convolution"
  bottom: "conv3_4"
  top: "conv3_5"
  param {
    lr_mult: 1
    decay_mult: 1
  }
  param {
    lr_mult: 0
    decay_mult: 0
  }
  convolution_param {
    num_output: 256
    pad: 1
    kernel_size: 3
    stride: 1
    weight_filler {
      type: "gaussian"
      std: 0.01
    }
    bias_filler {
      type: "constant"
      value: 0
    }
  }
}
layer {
  name: "relu3_5"
  type: "PReLU"
  bottom: "conv3_5"
  top: "conv3_5"
}
layer {
  name: "res3_5"
  type: "Eltwise"
  bottom: "res3_3"
  bottom: "conv3_5"
  top: "res3_5"
  eltwise_param {
    operation: SUM
  }
}
layer {
  name: "conv3_6"
  type: "Convolution"
  bottom: "res3_5"
  top: "conv3_6"
  param {
    lr_mult: 1
    decay_mult: 1
  }
  param {
    lr_mult: 0
    decay_mult: 0
  }
  convolution_param {
    num_output: 256
    pad: 1
    kernel_size: 3
    stride: 1
    weight_filler {
      type: "gaussian"
      std: 0.01
    }
    bias_filler {
      type: "constant"
      value: 0
    }
  }
}
layer {
  name: "relu3_6"
  type: "PReLU"
  bottom: "conv3_6"
  top: "conv3_6"
}
layer {
  name: "conv3_7"
  type: "Convolution"
  bottom: "conv3_6"
  top: "conv3_7"
  param {
    lr_mult: 1
    decay_mult: 1
  }
  param {
    lr_mult: 0
    decay_mult: 0
  }
  convolution_param {
    num_output: 256
    pad: 1
    kernel_size: 3
    stride: 1
    weight_filler {
      type: "gaussian"
      std: 0.01
    }
    bias_filler {
      type: "constant"
      value: 0
    }
  }
}
layer {
  name: "relu3_7"
  type: "PReLU"
  bottom: "conv3_7"
  top: "conv3_7"
}
layer {
  name: "res3_7"
  type: "Eltwise"
  bottom: "res3_5"
  bottom: "conv3_7"
  top: "res3_7"
  eltwise_param {
    operation: SUM
  }
}
layer {
  name: "conv3_8"
  type: "Convolution"
  bottom: "res3_7"
  top: "conv3_8"
  param {
    lr_mult: 1
    decay_mult: 1
  }
  param {
    lr_mult: 0
    decay_mult: 0
  }
  convolution_param {
    num_output: 256
    pad: 1
    kernel_size: 3
    stride: 1
    weight_filler {
      type: "gaussian"
      std: 0.01
    }
    bias_filler {
      type: "constant"
      value: 0
    }
  }
}
layer {
  name: "relu3_8"
  type: "PReLU"
  bottom: "conv3_8"
  top: "conv3_8"
}
layer {
  name: "conv3_9"
  type: "Convolution"
  bottom: "conv3_8"
  top: "conv3_9"
  param {
    lr_mult: 1
    decay_mult: 1
  }
  param {
    lr_mult: 0
    decay_mult: 0
  }
  convolution_param {
    num_output: 256
    pad: 1
    kernel_size: 3
    stride: 1
    weight_filler {
      type: "gaussian"
      std: 0.01
    }
    bias_filler {
      type: "constant"
      value: 0
    }
  }
}
layer {
  name: "relu3_9"
  type: "PReLU"
  bottom: "conv3_9"
  top: "conv3_9"
}
layer {
  name: "res3_9"
  type: "Eltwise"
  bottom: "res3_7"
  bottom: "conv3_9"
  top: "res3_9"
  eltwise_param {
    operation: SUM
  }
}
layer {
  name: "conv4_1"
  type: "Convolution"
  bottom: "res3_9"
  top: "conv4_1"
  param {
    lr_mult: 1
    decay_mult: 1
  }
  param {
    lr_mult: 2
    decay_mult: 0
  }
  convolution_param {
    num_output: 512
    pad: 1
    kernel_size: 3
    stride: 2
    weight_filler {
      type: "xavier"
    }
    bias_filler {
      type: "constant"
      value: 0
    }
  }
}
layer {
  name: "relu4_1"
  type: "PReLU"
  bottom: "conv4_1"
  top: "conv4_1"
}
layer {
  name: "conv4_2"
  type: "Convolution"
  bottom: "conv4_1"
  top: "conv4_2"
  param {
    lr_mult: 1
    decay_mult: 1
  }
  param {
    lr_mult: 0
    decay_mult: 0
  }
  convolution_param {
    num_output: 512
    pad: 1
    kernel_size: 3
    stride: 1
    weight_filler {
      type: "gaussian"
      std: 0.01
    }
    bias_filler {
      type: "constant"
      value: 0
    }
  }
}
layer {
  name: "relu4_2"
  type: "PReLU"
  bottom: "conv4_2"
  top: "conv4_2"
}
layer {
  name: "conv4_3"
  type: "Convolution"
  bottom: "conv4_2"
  top: "conv4_3"
  param {
    lr_mult: 1
    decay_mult: 1
  }
  param {
    lr_mult: 0
    decay_mult: 0
  }
  convolution_param {
    num_output: 512
    pad: 1
    kernel_size: 3
    stride: 1
    weight_filler {
      type: "gaussian"
      std: 0.01
    }
    bias_filler {
      type: "constant"
      value: 0
    }
  }
}
layer {
  name: "relu4_3"
  type: "PReLU"
  bottom: "conv4_3"
  top: "conv4_3"
}
layer {
  name: "res4_3"
  type: "Eltwise"
  bottom: "conv4_1"
  bottom: "conv4_3"
  top: "res4_3"
  eltwise_param {
    operation: SUM
  }
}
layer {
  name: "fc5"
  type: "InnerProduct"
  bottom: "res4_3"
  top: "fc5"
  param {
    lr_mult: 1
    decay_mult: 1
  }
  param {
    lr_mult: 2
    decay_mult: 0
  }
  inner_product_param {
    num_output: 512
    weight_filler {
      type: "xavier"
    }
    bias_filler {
      type: "constant"
      value: 0
    }
  }
}
layer {
  name: "norm1"
  type: "Normalize"
  bottom: "fc5"
  top: "norm1"
}
layer {
  name: "fc6_l2"
  type: "InnerProduct"
  bottom: "norm1"
  top: "fc6"
  param {
    lr_mult: 1
  }
  inner_product_param {
    num_output: 9131
    bias_term: false
    weight_filler {
      type: "xavier"
    }
    normalize: true
  }
}
layer {
  name: "label_Margin"
  type: "LabelMargin"
  bottom: "fc6"
  bottom: "label"
  top: "fc6_margin"
  label_margin_param {
    bias: 0.35
  }
}
layer {
  name: "fc6_margin_scale"
  type: "Scale"
  bottom: "fc6_margin"
  top: "fc6_margin_scale"
  param {
    lr_mult: 0
    decay_mult: 0
  }
  scale_param {
    filler {
      type: "constant"
      value: 64
    }
    min_value: 30
  }
}
layer {
  name: "softmax_loss"
  type: "SoftmaxWithLoss"
  bottom: "fc6_margin_scale"
  bottom: "label"
  top: "softmax_loss"
  loss_weight: 1
}
I0129 17:58:13.415001 30839 layer_factory.hpp:77] Creating layer data
I0129 17:58:13.415032 30839 net.cpp:84] Creating Layer data
I0129 17:58:13.415042 30839 net.cpp:380] data -> data
I0129 17:58:13.415062 30839 net.cpp:380] data -> label
I0129 17:58:13.415128 30839 image_data_layer.cpp:38] Opening file /data/vggface2/VGGFACE_train_list-112X96-add.txt
I0129 17:58:15.326050 30839 image_data_layer.cpp:53] Shuffling data
I0129 17:58:16.596108 30839 image_data_layer.cpp:63] A total of 3306982 images.
I0129 17:58:16.598242 30839 image_data_layer.cpp:90] output data size: 256,3,112,96
I0129 17:58:16.710125 30839 net.cpp:122] Setting up data
I0129 17:58:16.710180 30839 net.cpp:129] Top shape: 256 3 112 96 (8257536)
I0129 17:58:16.710188 30839 net.cpp:129] Top shape: 256 (256)
I0129 17:58:16.710191 30839 net.cpp:137] Memory required for data: 33031168
I0129 17:58:16.710217 30839 layer_factory.hpp:77] Creating layer label_data_1_split
I0129 17:58:16.710242 30839 net.cpp:84] Creating Layer label_data_1_split
I0129 17:58:16.710250 30839 net.cpp:406] label_data_1_split <- label
I0129 17:58:16.710269 30839 net.cpp:380] label_data_1_split -> label_data_1_split_0
I0129 17:58:16.710286 30839 net.cpp:380] label_data_1_split -> label_data_1_split_1
I0129 17:58:16.710346 30839 net.cpp:122] Setting up label_data_1_split
I0129 17:58:16.710355 30839 net.cpp:129] Top shape: 256 (256)
I0129 17:58:16.710360 30839 net.cpp:129] Top shape: 256 (256)
I0129 17:58:16.710362 30839 net.cpp:137] Memory required for data: 33033216
I0129 17:58:16.710367 30839 layer_factory.hpp:77] Creating layer conv1_1
I0129 17:58:16.710392 30839 net.cpp:84] Creating Layer conv1_1
I0129 17:58:16.710397 30839 net.cpp:406] conv1_1 <- data
I0129 17:58:16.710407 30839 net.cpp:380] conv1_1 -> conv1_1
I0129 17:58:17.508129 30839 net.cpp:122] Setting up conv1_1
I0129 17:58:17.508177 30839 net.cpp:129] Top shape: 256 64 56 48 (44040192)
I0129 17:58:17.508182 30839 net.cpp:137] Memory required for data: 209193984
I0129 17:58:17.508208 30839 layer_factory.hpp:77] Creating layer relu1_1
I0129 17:58:17.508234 30839 net.cpp:84] Creating Layer relu1_1
I0129 17:58:17.508237 30839 net.cpp:406] relu1_1 <- conv1_1
I0129 17:58:17.508244 30839 net.cpp:367] relu1_1 -> conv1_1 (in-place)
I0129 17:58:17.512259 30839 net.cpp:122] Setting up relu1_1
I0129 17:58:17.512290 30839 net.cpp:129] Top shape: 256 64 56 48 (44040192)
I0129 17:58:17.512293 30839 net.cpp:137] Memory required for data: 385354752
I0129 17:58:17.512302 30839 layer_factory.hpp:77] Creating layer conv1_1_relu1_1_0_split
I0129 17:58:17.512313 30839 net.cpp:84] Creating Layer conv1_1_relu1_1_0_split
I0129 17:58:17.512317 30839 net.cpp:406] conv1_1_relu1_1_0_split <- conv1_1
I0129 17:58:17.512334 30839 net.cpp:380] conv1_1_relu1_1_0_split -> conv1_1_relu1_1_0_split_0
I0129 17:58:17.512344 30839 net.cpp:380] conv1_1_relu1_1_0_split -> conv1_1_relu1_1_0_split_1
I0129 17:58:17.512396 30839 net.cpp:122] Setting up conv1_1_relu1_1_0_split
I0129 17:58:17.512405 30839 net.cpp:129] Top shape: 256 64 56 48 (44040192)
I0129 17:58:17.512409 30839 net.cpp:129] Top shape: 256 64 56 48 (44040192)
I0129 17:58:17.512413 30839 net.cpp:137] Memory required for data: 737676288
I0129 17:58:17.512416 30839 layer_factory.hpp:77] Creating layer conv1_2
I0129 17:58:17.512428 30839 net.cpp:84] Creating Layer conv1_2
I0129 17:58:17.512434 30839 net.cpp:406] conv1_2 <- conv1_1_relu1_1_0_split_0
I0129 17:58:17.512442 30839 net.cpp:380] conv1_2 -> conv1_2
I0129 17:58:17.517158 30839 net.cpp:122] Setting up conv1_2
I0129 17:58:17.517184 30839 net.cpp:129] Top shape: 256 64 56 48 (44040192)
I0129 17:58:17.517210 30839 net.cpp:137] Memory required for data: 913837056
I0129 17:58:17.517220 30839 layer_factory.hpp:77] Creating layer relu1_2
I0129 17:58:17.517236 30839 net.cpp:84] Creating Layer relu1_2
I0129 17:58:17.517241 30839 net.cpp:406] relu1_2 <- conv1_2
I0129 17:58:17.517246 30839 net.cpp:367] relu1_2 -> conv1_2 (in-place)
I0129 17:58:17.517437 30839 net.cpp:122] Setting up relu1_2
I0129 17:58:17.517447 30839 net.cpp:129] Top shape: 256 64 56 48 (44040192)
I0129 17:58:17.517451 30839 net.cpp:137] Memory required for data: 1089997824
I0129 17:58:17.517455 30839 layer_factory.hpp:77] Creating layer conv1_3
I0129 17:58:17.517465 30839 net.cpp:84] Creating Layer conv1_3
I0129 17:58:17.517468 30839 net.cpp:406] conv1_3 <- conv1_2
I0129 17:58:17.517474 30839 net.cpp:380] conv1_3 -> conv1_3
I0129 17:58:17.523545 30839 net.cpp:122] Setting up conv1_3
I0129 17:58:17.523561 30839 net.cpp:129] Top shape: 256 64 56 48 (44040192)
I0129 17:58:17.523566 30839 net.cpp:137] Memory required for data: 1266158592
I0129 17:58:17.523573 30839 layer_factory.hpp:77] Creating layer relu1_3
I0129 17:58:17.523584 30839 net.cpp:84] Creating Layer relu1_3
I0129 17:58:17.523588 30839 net.cpp:406] relu1_3 <- conv1_3
I0129 17:58:17.523593 30839 net.cpp:367] relu1_3 -> conv1_3 (in-place)
I0129 17:58:17.523782 30839 net.cpp:122] Setting up relu1_3
I0129 17:58:17.523792 30839 net.cpp:129] Top shape: 256 64 56 48 (44040192)
I0129 17:58:17.523795 30839 net.cpp:137] Memory required for data: 1442319360
I0129 17:58:17.523803 30839 layer_factory.hpp:77] Creating layer res1_3
I0129 17:58:17.523815 30839 net.cpp:84] Creating Layer res1_3
I0129 17:58:17.523820 30839 net.cpp:406] res1_3 <- conv1_1_relu1_1_0_split_1
I0129 17:58:17.523825 30839 net.cpp:406] res1_3 <- conv1_3
I0129 17:58:17.523830 30839 net.cpp:380] res1_3 -> res1_3
I0129 17:58:17.523862 30839 net.cpp:122] Setting up res1_3
I0129 17:58:17.523870 30839 net.cpp:129] Top shape: 256 64 56 48 (44040192)
I0129 17:58:17.523874 30839 net.cpp:137] Memory required for data: 1618480128
I0129 17:58:17.523876 30839 layer_factory.hpp:77] Creating layer conv2_1
I0129 17:58:17.523888 30839 net.cpp:84] Creating Layer conv2_1
I0129 17:58:17.523891 30839 net.cpp:406] conv2_1 <- res1_3
I0129 17:58:17.523900 30839 net.cpp:380] conv2_1 -> conv2_1
I0129 17:58:17.530488 30839 net.cpp:122] Setting up conv2_1
I0129 17:58:17.530515 30839 net.cpp:129] Top shape: 256 128 28 24 (22020096)
I0129 17:58:17.530520 30839 net.cpp:137] Memory required for data: 1706560512
I0129 17:58:17.530526 30839 layer_factory.hpp:77] Creating layer relu2_1
I0129 17:58:17.530535 30839 net.cpp:84] Creating Layer relu2_1
I0129 17:58:17.530539 30839 net.cpp:406] relu2_1 <- conv2_1
I0129 17:58:17.530546 30839 net.cpp:367] relu2_1 -> conv2_1 (in-place)
I0129 17:58:17.530704 30839 net.cpp:122] Setting up relu2_1
I0129 17:58:17.530716 30839 net.cpp:129] Top shape: 256 128 28 24 (22020096)
I0129 17:58:17.530719 30839 net.cpp:137] Memory required for data: 1794640896
I0129 17:58:17.530725 30839 layer_factory.hpp:77] Creating layer conv2_1_relu2_1_0_split
I0129 17:58:17.530730 30839 net.cpp:84] Creating Layer conv2_1_relu2_1_0_split
I0129 17:58:17.530733 30839 net.cpp:406] conv2_1_relu2_1_0_split <- conv2_1
I0129 17:58:17.530741 30839 net.cpp:380] conv2_1_relu2_1_0_split -> conv2_1_relu2_1_0_split_0
I0129 17:58:17.530748 30839 net.cpp:380] conv2_1_relu2_1_0_split -> conv2_1_relu2_1_0_split_1
I0129 17:58:17.530787 30839 net.cpp:122] Setting up conv2_1_relu2_1_0_split
I0129 17:58:17.530795 30839 net.cpp:129] Top shape: 256 128 28 24 (22020096)
I0129 17:58:17.530799 30839 net.cpp:129] Top shape: 256 128 28 24 (22020096)
I0129 17:58:17.530802 30839 net.cpp:137] Memory required for data: 1970801664
I0129 17:58:17.530805 30839 layer_factory.hpp:77] Creating layer conv2_2
I0129 17:58:17.530818 30839 net.cpp:84] Creating Layer conv2_2
I0129 17:58:17.530823 30839 net.cpp:406] conv2_2 <- conv2_1_relu2_1_0_split_0
I0129 17:58:17.530833 30839 net.cpp:380] conv2_2 -> conv2_2
I0129 17:58:17.533638 30839 net.cpp:122] Setting up conv2_2
I0129 17:58:17.533675 30839 net.cpp:129] Top shape: 256 128 28 24 (22020096)
I0129 17:58:17.533679 30839 net.cpp:137] Memory required for data: 2058882048
I0129 17:58:17.533686 30839 layer_factory.hpp:77] Creating layer relu2_2
I0129 17:58:17.533694 30839 net.cpp:84] Creating Layer relu2_2
I0129 17:58:17.533699 30839 net.cpp:406] relu2_2 <- conv2_2
I0129 17:58:17.533704 30839 net.cpp:367] relu2_2 -> conv2_2 (in-place)
I0129 17:58:17.533862 30839 net.cpp:122] Setting up relu2_2
I0129 17:58:17.533871 30839 net.cpp:129] Top shape: 256 128 28 24 (22020096)
I0129 17:58:17.533875 30839 net.cpp:137] Memory required for data: 2146962432
I0129 17:58:17.533879 30839 layer_factory.hpp:77] Creating layer conv2_3
I0129 17:58:17.533890 30839 net.cpp:84] Creating Layer conv2_3
I0129 17:58:17.533895 30839 net.cpp:406] conv2_3 <- conv2_2
I0129 17:58:17.533903 30839 net.cpp:380] conv2_3 -> conv2_3
I0129 17:58:17.542505 30839 net.cpp:122] Setting up conv2_3
I0129 17:58:17.542536 30839 net.cpp:129] Top shape: 256 128 28 24 (22020096)
I0129 17:58:17.542539 30839 net.cpp:137] Memory required for data: 2235042816
I0129 17:58:17.542553 30839 layer_factory.hpp:77] Creating layer relu2_3
I0129 17:58:17.542572 30839 net.cpp:84] Creating Layer relu2_3
I0129 17:58:17.542587 30839 net.cpp:406] relu2_3 <- conv2_3
I0129 17:58:17.542593 30839 net.cpp:367] relu2_3 -> conv2_3 (in-place)
I0129 17:58:17.542763 30839 net.cpp:122] Setting up relu2_3
I0129 17:58:17.542774 30839 net.cpp:129] Top shape: 256 128 28 24 (22020096)
I0129 17:58:17.542778 30839 net.cpp:137] Memory required for data: 2323123200
I0129 17:58:17.542783 30839 layer_factory.hpp:77] Creating layer res2_3
I0129 17:58:17.542791 30839 net.cpp:84] Creating Layer res2_3
I0129 17:58:17.542795 30839 net.cpp:406] res2_3 <- conv2_1_relu2_1_0_split_1
I0129 17:58:17.542801 30839 net.cpp:406] res2_3 <- conv2_3
I0129 17:58:17.542809 30839 net.cpp:380] res2_3 -> res2_3
I0129 17:58:17.542840 30839 net.cpp:122] Setting up res2_3
I0129 17:58:17.542847 30839 net.cpp:129] Top shape: 256 128 28 24 (22020096)
I0129 17:58:17.542850 30839 net.cpp:137] Memory required for data: 2411203584
I0129 17:58:17.542855 30839 layer_factory.hpp:77] Creating layer res2_3_res2_3_0_split
I0129 17:58:17.542860 30839 net.cpp:84] Creating Layer res2_3_res2_3_0_split
I0129 17:58:17.542863 30839 net.cpp:406] res2_3_res2_3_0_split <- res2_3
I0129 17:58:17.542876 30839 net.cpp:380] res2_3_res2_3_0_split -> res2_3_res2_3_0_split_0
I0129 17:58:17.542891 30839 net.cpp:380] res2_3_res2_3_0_split -> res2_3_res2_3_0_split_1
I0129 17:58:17.542930 30839 net.cpp:122] Setting up res2_3_res2_3_0_split
I0129 17:58:17.542940 30839 net.cpp:129] Top shape: 256 128 28 24 (22020096)
I0129 17:58:17.542945 30839 net.cpp:129] Top shape: 256 128 28 24 (22020096)
I0129 17:58:17.542948 30839 net.cpp:137] Memory required for data: 2587364352
I0129 17:58:17.542951 30839 layer_factory.hpp:77] Creating layer conv2_4
I0129 17:58:17.542966 30839 net.cpp:84] Creating Layer conv2_4
I0129 17:58:17.542976 30839 net.cpp:406] conv2_4 <- res2_3_res2_3_0_split_0
I0129 17:58:17.542984 30839 net.cpp:380] conv2_4 -> conv2_4
I0129 17:58:17.546061 30839 net.cpp:122] Setting up conv2_4
I0129 17:58:17.546087 30839 net.cpp:129] Top shape: 256 128 28 24 (22020096)
I0129 17:58:17.546092 30839 net.cpp:137] Memory required for data: 2675444736
I0129 17:58:17.546099 30839 layer_factory.hpp:77] Creating layer relu2_4
I0129 17:58:17.546108 30839 net.cpp:84] Creating Layer relu2_4
I0129 17:58:17.546113 30839 net.cpp:406] relu2_4 <- conv2_4
I0129 17:58:17.546118 30839 net.cpp:367] relu2_4 -> conv2_4 (in-place)
I0129 17:58:17.546277 30839 net.cpp:122] Setting up relu2_4
I0129 17:58:17.546288 30839 net.cpp:129] Top shape: 256 128 28 24 (22020096)
I0129 17:58:17.546291 30839 net.cpp:137] Memory required for data: 2763525120
I0129 17:58:17.546296 30839 layer_factory.hpp:77] Creating layer conv2_5
I0129 17:58:17.546308 30839 net.cpp:84] Creating Layer conv2_5
I0129 17:58:17.546313 30839 net.cpp:406] conv2_5 <- conv2_4
I0129 17:58:17.546321 30839 net.cpp:380] conv2_5 -> conv2_5
I0129 17:58:17.550513 30839 net.cpp:122] Setting up conv2_5
I0129 17:58:17.550541 30839 net.cpp:129] Top shape: 256 128 28 24 (22020096)
I0129 17:58:17.550545 30839 net.cpp:137] Memory required for data: 2851605504
I0129 17:58:17.550551 30839 layer_factory.hpp:77] Creating layer relu2_5
I0129 17:58:17.550559 30839 net.cpp:84] Creating Layer relu2_5
I0129 17:58:17.550562 30839 net.cpp:406] relu2_5 <- conv2_5
I0129 17:58:17.550570 30839 net.cpp:367] relu2_5 -> conv2_5 (in-place)
I0129 17:58:17.550729 30839 net.cpp:122] Setting up relu2_5
I0129 17:58:17.550739 30839 net.cpp:129] Top shape: 256 128 28 24 (22020096)
I0129 17:58:17.550741 30839 net.cpp:137] Memory required for data: 2939685888
I0129 17:58:17.550748 30839 layer_factory.hpp:77] Creating layer res2_5
I0129 17:58:17.550756 30839 net.cpp:84] Creating Layer res2_5
I0129 17:58:17.550760 30839 net.cpp:406] res2_5 <- res2_3_res2_3_0_split_1
I0129 17:58:17.550765 30839 net.cpp:406] res2_5 <- conv2_5
I0129 17:58:17.550770 30839 net.cpp:380] res2_5 -> res2_5
I0129 17:58:17.550798 30839 net.cpp:122] Setting up res2_5
I0129 17:58:17.550806 30839 net.cpp:129] Top shape: 256 128 28 24 (22020096)
I0129 17:58:17.550808 30839 net.cpp:137] Memory required for data: 3027766272
I0129 17:58:17.550812 30839 layer_factory.hpp:77] Creating layer conv3_1
I0129 17:58:17.550822 30839 net.cpp:84] Creating Layer conv3_1
I0129 17:58:17.550827 30839 net.cpp:406] conv3_1 <- res2_5
I0129 17:58:17.550834 30839 net.cpp:380] conv3_1 -> conv3_1
I0129 17:58:17.554653 30839 net.cpp:122] Setting up conv3_1
I0129 17:58:17.554679 30839 net.cpp:129] Top shape: 256 256 14 12 (11010048)
I0129 17:58:17.554683 30839 net.cpp:137] Memory required for data: 3071806464
I0129 17:58:17.554690 30839 layer_factory.hpp:77] Creating layer relu3_1
I0129 17:58:17.554698 30839 net.cpp:84] Creating Layer relu3_1
I0129 17:58:17.554702 30839 net.cpp:406] relu3_1 <- conv3_1
I0129 17:58:17.554709 30839 net.cpp:367] relu3_1 -> conv3_1 (in-place)
I0129 17:58:17.554841 30839 net.cpp:122] Setting up relu3_1
I0129 17:58:17.554850 30839 net.cpp:129] Top shape: 256 256 14 12 (11010048)
I0129 17:58:17.554853 30839 net.cpp:137] Memory required for data: 3115846656
I0129 17:58:17.554858 30839 layer_factory.hpp:77] Creating layer conv3_1_relu3_1_0_split
I0129 17:58:17.554867 30839 net.cpp:84] Creating Layer conv3_1_relu3_1_0_split
I0129 17:58:17.554870 30839 net.cpp:406] conv3_1_relu3_1_0_split <- conv3_1
I0129 17:58:17.554877 30839 net.cpp:380] conv3_1_relu3_1_0_split -> conv3_1_relu3_1_0_split_0
I0129 17:58:17.554884 30839 net.cpp:380] conv3_1_relu3_1_0_split -> conv3_1_relu3_1_0_split_1
I0129 17:58:17.554925 30839 net.cpp:122] Setting up conv3_1_relu3_1_0_split
I0129 17:58:17.554935 30839 net.cpp:129] Top shape: 256 256 14 12 (11010048)
I0129 17:58:17.554939 30839 net.cpp:129] Top shape: 256 256 14 12 (11010048)
I0129 17:58:17.554942 30839 net.cpp:137] Memory required for data: 3203927040
I0129 17:58:17.554945 30839 layer_factory.hpp:77] Creating layer conv3_2
I0129 17:58:17.554956 30839 net.cpp:84] Creating Layer conv3_2
I0129 17:58:17.554960 30839 net.cpp:406] conv3_2 <- conv3_1_relu3_1_0_split_0
I0129 17:58:17.554966 30839 net.cpp:380] conv3_2 -> conv3_2
I0129 17:58:17.563102 30839 net.cpp:122] Setting up conv3_2
I0129 17:58:17.563127 30839 net.cpp:129] Top shape: 256 256 14 12 (11010048)
I0129 17:58:17.563132 30839 net.cpp:137] Memory required for data: 3247967232
I0129 17:58:17.563138 30839 layer_factory.hpp:77] Creating layer relu3_2
I0129 17:58:17.563148 30839 net.cpp:84] Creating Layer relu3_2
I0129 17:58:17.563153 30839 net.cpp:406] relu3_2 <- conv3_2
I0129 17:58:17.563158 30839 net.cpp:367] relu3_2 -> conv3_2 (in-place)
I0129 17:58:17.563299 30839 net.cpp:122] Setting up relu3_2
I0129 17:58:17.563309 30839 net.cpp:129] Top shape: 256 256 14 12 (11010048)
I0129 17:58:17.563313 30839 net.cpp:137] Memory required for data: 3292007424
I0129 17:58:17.563318 30839 layer_factory.hpp:77] Creating layer conv3_3
I0129 17:58:17.563328 30839 net.cpp:84] Creating Layer conv3_3
I0129 17:58:17.563333 30839 net.cpp:406] conv3_3 <- conv3_2
I0129 17:58:17.563354 30839 net.cpp:380] conv3_3 -> conv3_3
I0129 17:58:17.577082 30839 net.cpp:122] Setting up conv3_3
I0129 17:58:17.577109 30839 net.cpp:129] Top shape: 256 256 14 12 (11010048)
I0129 17:58:17.577113 30839 net.cpp:137] Memory required for data: 3336047616
I0129 17:58:17.577121 30839 layer_factory.hpp:77] Creating layer relu3_3
I0129 17:58:17.577128 30839 net.cpp:84] Creating Layer relu3_3
I0129 17:58:17.577132 30839 net.cpp:406] relu3_3 <- conv3_3
I0129 17:58:17.577137 30839 net.cpp:367] relu3_3 -> conv3_3 (in-place)
I0129 17:58:17.577286 30839 net.cpp:122] Setting up relu3_3
I0129 17:58:17.577296 30839 net.cpp:129] Top shape: 256 256 14 12 (11010048)
I0129 17:58:17.577298 30839 net.cpp:137] Memory required for data: 3380087808
I0129 17:58:17.577309 30839 layer_factory.hpp:77] Creating layer res3_3
I0129 17:58:17.577320 30839 net.cpp:84] Creating Layer res3_3
I0129 17:58:17.577323 30839 net.cpp:406] res3_3 <- conv3_1_relu3_1_0_split_1
I0129 17:58:17.577328 30839 net.cpp:406] res3_3 <- conv3_3
I0129 17:58:17.577333 30839 net.cpp:380] res3_3 -> res3_3
I0129 17:58:17.577363 30839 net.cpp:122] Setting up res3_3
I0129 17:58:17.577371 30839 net.cpp:129] Top shape: 256 256 14 12 (11010048)
I0129 17:58:17.577374 30839 net.cpp:137] Memory required for data: 3424128000
I0129 17:58:17.577379 30839 layer_factory.hpp:77] Creating layer res3_3_res3_3_0_split
I0129 17:58:17.577397 30839 net.cpp:84] Creating Layer res3_3_res3_3_0_split
I0129 17:58:17.577401 30839 net.cpp:406] res3_3_res3_3_0_split <- res3_3
I0129 17:58:17.577406 30839 net.cpp:380] res3_3_res3_3_0_split -> res3_3_res3_3_0_split_0
I0129 17:58:17.577414 30839 net.cpp:380] res3_3_res3_3_0_split -> res3_3_res3_3_0_split_1
I0129 17:58:17.577450 30839 net.cpp:122] Setting up res3_3_res3_3_0_split
I0129 17:58:17.577458 30839 net.cpp:129] Top shape: 256 256 14 12 (11010048)
I0129 17:58:17.577462 30839 net.cpp:129] Top shape: 256 256 14 12 (11010048)
I0129 17:58:17.577466 30839 net.cpp:137] Memory required for data: 3512208384
I0129 17:58:17.577468 30839 layer_factory.hpp:77] Creating layer conv3_4
I0129 17:58:17.577481 30839 net.cpp:84] Creating Layer conv3_4
I0129 17:58:17.577486 30839 net.cpp:406] conv3_4 <- res3_3_res3_3_0_split_0
I0129 17:58:17.577493 30839 net.cpp:380] conv3_4 -> conv3_4
I0129 17:58:17.585629 30839 net.cpp:122] Setting up conv3_4
I0129 17:58:17.585655 30839 net.cpp:129] Top shape: 256 256 14 12 (11010048)
I0129 17:58:17.585659 30839 net.cpp:137] Memory required for data: 3556248576
I0129 17:58:17.585665 30839 layer_factory.hpp:77] Creating layer relu3_4
I0129 17:58:17.585675 30839 net.cpp:84] Creating Layer relu3_4
I0129 17:58:17.585678 30839 net.cpp:406] relu3_4 <- conv3_4
I0129 17:58:17.585683 30839 net.cpp:367] relu3_4 -> conv3_4 (in-place)
I0129 17:58:17.585839 30839 net.cpp:122] Setting up relu3_4
I0129 17:58:17.585850 30839 net.cpp:129] Top shape: 256 256 14 12 (11010048)
I0129 17:58:17.585852 30839 net.cpp:137] Memory required for data: 3600288768
I0129 17:58:17.585858 30839 layer_factory.hpp:77] Creating layer conv3_5
I0129 17:58:17.585871 30839 net.cpp:84] Creating Layer conv3_5
I0129 17:58:17.585876 30839 net.cpp:406] conv3_5 <- conv3_4
I0129 17:58:17.585885 30839 net.cpp:380] conv3_5 -> conv3_5
I0129 17:58:17.596734 30839 net.cpp:122] Setting up conv3_5
I0129 17:58:17.596760 30839 net.cpp:129] Top shape: 256 256 14 12 (11010048)
I0129 17:58:17.596765 30839 net.cpp:137] Memory required for data: 3644328960
I0129 17:58:17.596772 30839 layer_factory.hpp:77] Creating layer relu3_5
I0129 17:58:17.596778 30839 net.cpp:84] Creating Layer relu3_5
I0129 17:58:17.596782 30839 net.cpp:406] relu3_5 <- conv3_5
I0129 17:58:17.596787 30839 net.cpp:367] relu3_5 -> conv3_5 (in-place)
I0129 17:58:17.596941 30839 net.cpp:122] Setting up relu3_5
I0129 17:58:17.596951 30839 net.cpp:129] Top shape: 256 256 14 12 (11010048)
I0129 17:58:17.596954 30839 net.cpp:137] Memory required for data: 3688369152
I0129 17:58:17.596959 30839 layer_factory.hpp:77] Creating layer res3_5
I0129 17:58:17.596967 30839 net.cpp:84] Creating Layer res3_5
I0129 17:58:17.596983 30839 net.cpp:406] res3_5 <- res3_3_res3_3_0_split_1
I0129 17:58:17.596988 30839 net.cpp:406] res3_5 <- conv3_5
I0129 17:58:17.596994 30839 net.cpp:380] res3_5 -> res3_5
I0129 17:58:17.597025 30839 net.cpp:122] Setting up res3_5
I0129 17:58:17.597033 30839 net.cpp:129] Top shape: 256 256 14 12 (11010048)
I0129 17:58:17.597038 30839 net.cpp:137] Memory required for data: 3732409344
I0129 17:58:17.597043 30839 layer_factory.hpp:77] Creating layer res3_5_res3_5_0_split
I0129 17:58:17.597048 30839 net.cpp:84] Creating Layer res3_5_res3_5_0_split
I0129 17:58:17.597051 30839 net.cpp:406] res3_5_res3_5_0_split <- res3_5
I0129 17:58:17.597059 30839 net.cpp:380] res3_5_res3_5_0_split -> res3_5_res3_5_0_split_0
I0129 17:58:17.597076 30839 net.cpp:380] res3_5_res3_5_0_split -> res3_5_res3_5_0_split_1
I0129 17:58:17.597117 30839 net.cpp:122] Setting up res3_5_res3_5_0_split
I0129 17:58:17.597126 30839 net.cpp:129] Top shape: 256 256 14 12 (11010048)
I0129 17:58:17.597129 30839 net.cpp:129] Top shape: 256 256 14 12 (11010048)
I0129 17:58:17.597132 30839 net.cpp:137] Memory required for data: 3820489728
I0129 17:58:17.597136 30839 layer_factory.hpp:77] Creating layer conv3_6
I0129 17:58:17.597148 30839 net.cpp:84] Creating Layer conv3_6
I0129 17:58:17.597153 30839 net.cpp:406] conv3_6 <- res3_5_res3_5_0_split_0
I0129 17:58:17.597160 30839 net.cpp:380] conv3_6 -> conv3_6
I0129 17:58:17.608578 30839 net.cpp:122] Setting up conv3_6
I0129 17:58:17.608605 30839 net.cpp:129] Top shape: 256 256 14 12 (11010048)
I0129 17:58:17.608609 30839 net.cpp:137] Memory required for data: 3864529920
I0129 17:58:17.608615 30839 layer_factory.hpp:77] Creating layer relu3_6
I0129 17:58:17.608628 30839 net.cpp:84] Creating Layer relu3_6
I0129 17:58:17.608631 30839 net.cpp:406] relu3_6 <- conv3_6
I0129 17:58:17.608636 30839 net.cpp:367] relu3_6 -> conv3_6 (in-place)
I0129 17:58:17.608783 30839 net.cpp:122] Setting up relu3_6
I0129 17:58:17.608798 30839 net.cpp:129] Top shape: 256 256 14 12 (11010048)
I0129 17:58:17.608803 30839 net.cpp:137] Memory required for data: 3908570112
I0129 17:58:17.608808 30839 layer_factory.hpp:77] Creating layer conv3_7
I0129 17:58:17.608819 30839 net.cpp:84] Creating Layer conv3_7
I0129 17:58:17.608824 30839 net.cpp:406] conv3_7 <- conv3_6
I0129 17:58:17.608832 30839 net.cpp:380] conv3_7 -> conv3_7
I0129 17:58:17.618763 30839 net.cpp:122] Setting up conv3_7
I0129 17:58:17.618778 30839 net.cpp:129] Top shape: 256 256 14 12 (11010048)
I0129 17:58:17.618793 30839 net.cpp:137] Memory required for data: 3952610304
I0129 17:58:17.618799 30839 layer_factory.hpp:77] Creating layer relu3_7
I0129 17:58:17.618808 30839 net.cpp:84] Creating Layer relu3_7
I0129 17:58:17.618813 30839 net.cpp:406] relu3_7 <- conv3_7
I0129 17:58:17.618818 30839 net.cpp:367] relu3_7 -> conv3_7 (in-place)
I0129 17:58:17.618980 30839 net.cpp:122] Setting up relu3_7
I0129 17:58:17.618991 30839 net.cpp:129] Top shape: 256 256 14 12 (11010048)
I0129 17:58:17.618994 30839 net.cpp:137] Memory required for data: 3996650496
I0129 17:58:17.618999 30839 layer_factory.hpp:77] Creating layer res3_7
I0129 17:58:17.619005 30839 net.cpp:84] Creating Layer res3_7
I0129 17:58:17.619009 30839 net.cpp:406] res3_7 <- res3_5_res3_5_0_split_1
I0129 17:58:17.619014 30839 net.cpp:406] res3_7 <- conv3_7
I0129 17:58:17.619020 30839 net.cpp:380] res3_7 -> res3_7
I0129 17:58:17.619048 30839 net.cpp:122] Setting up res3_7
I0129 17:58:17.619056 30839 net.cpp:129] Top shape: 256 256 14 12 (11010048)
I0129 17:58:17.619060 30839 net.cpp:137] Memory required for data: 4040690688
I0129 17:58:17.619065 30839 layer_factory.hpp:77] Creating layer res3_7_res3_7_0_split
I0129 17:58:17.619072 30839 net.cpp:84] Creating Layer res3_7_res3_7_0_split
I0129 17:58:17.619076 30839 net.cpp:406] res3_7_res3_7_0_split <- res3_7
I0129 17:58:17.619083 30839 net.cpp:380] res3_7_res3_7_0_split -> res3_7_res3_7_0_split_0
I0129 17:58:17.619091 30839 net.cpp:380] res3_7_res3_7_0_split -> res3_7_res3_7_0_split_1
I0129 17:58:17.619128 30839 net.cpp:122] Setting up res3_7_res3_7_0_split
I0129 17:58:17.619150 30839 net.cpp:129] Top shape: 256 256 14 12 (11010048)
I0129 17:58:17.619155 30839 net.cpp:129] Top shape: 256 256 14 12 (11010048)
I0129 17:58:17.619158 30839 net.cpp:137] Memory required for data: 4128771072
I0129 17:58:17.619161 30839 layer_factory.hpp:77] Creating layer conv3_8
I0129 17:58:17.619173 30839 net.cpp:84] Creating Layer conv3_8
I0129 17:58:17.619176 30839 net.cpp:406] conv3_8 <- res3_7_res3_7_0_split_0
I0129 17:58:17.619184 30839 net.cpp:380] conv3_8 -> conv3_8
I0129 17:58:17.631810 30839 net.cpp:122] Setting up conv3_8
I0129 17:58:17.631837 30839 net.cpp:129] Top shape: 256 256 14 12 (11010048)
I0129 17:58:17.631841 30839 net.cpp:137] Memory required for data: 4172811264
I0129 17:58:17.631847 30839 layer_factory.hpp:77] Creating layer relu3_8
I0129 17:58:17.631857 30839 net.cpp:84] Creating Layer relu3_8
I0129 17:58:17.631861 30839 net.cpp:406] relu3_8 <- conv3_8
I0129 17:58:17.631866 30839 net.cpp:367] relu3_8 -> conv3_8 (in-place)
I0129 17:58:17.632027 30839 net.cpp:122] Setting up relu3_8
I0129 17:58:17.632036 30839 net.cpp:129] Top shape: 256 256 14 12 (11010048)
I0129 17:58:17.632040 30839 net.cpp:137] Memory required for data: 4216851456
I0129 17:58:17.632047 30839 layer_factory.hpp:77] Creating layer conv3_9
I0129 17:58:17.632058 30839 net.cpp:84] Creating Layer conv3_9
I0129 17:58:17.632063 30839 net.cpp:406] conv3_9 <- conv3_8
I0129 17:58:17.632071 30839 net.cpp:380] conv3_9 -> conv3_9
I0129 17:58:17.643364 30839 net.cpp:122] Setting up conv3_9
I0129 17:58:17.643390 30839 net.cpp:129] Top shape: 256 256 14 12 (11010048)
I0129 17:58:17.643393 30839 net.cpp:137] Memory required for data: 4260891648
I0129 17:58:17.643411 30839 layer_factory.hpp:77] Creating layer relu3_9
I0129 17:58:17.643419 30839 net.cpp:84] Creating Layer relu3_9
I0129 17:58:17.643424 30839 net.cpp:406] relu3_9 <- conv3_9
I0129 17:58:17.643429 30839 net.cpp:367] relu3_9 -> conv3_9 (in-place)
I0129 17:58:17.643592 30839 net.cpp:122] Setting up relu3_9
I0129 17:58:17.643601 30839 net.cpp:129] Top shape: 256 256 14 12 (11010048)
I0129 17:58:17.643605 30839 net.cpp:137] Memory required for data: 4304931840
I0129 17:58:17.643610 30839 layer_factory.hpp:77] Creating layer res3_9
I0129 17:58:17.643616 30839 net.cpp:84] Creating Layer res3_9
I0129 17:58:17.643620 30839 net.cpp:406] res3_9 <- res3_7_res3_7_0_split_1
I0129 17:58:17.643625 30839 net.cpp:406] res3_9 <- conv3_9
I0129 17:58:17.643631 30839 net.cpp:380] res3_9 -> res3_9
I0129 17:58:17.643661 30839 net.cpp:122] Setting up res3_9
I0129 17:58:17.643669 30839 net.cpp:129] Top shape: 256 256 14 12 (11010048)
I0129 17:58:17.643672 30839 net.cpp:137] Memory required for data: 4348972032
I0129 17:58:17.643678 30839 layer_factory.hpp:77] Creating layer conv4_1
I0129 17:58:17.643689 30839 net.cpp:84] Creating Layer conv4_1
I0129 17:58:17.643694 30839 net.cpp:406] conv4_1 <- res3_9
I0129 17:58:17.643702 30839 net.cpp:380] conv4_1 -> conv4_1
I0129 17:58:17.656486 30839 net.cpp:122] Setting up conv4_1
I0129 17:58:17.656513 30839 net.cpp:129] Top shape: 256 512 7 6 (5505024)
I0129 17:58:17.656517 30839 net.cpp:137] Memory required for data: 4370992128
I0129 17:58:17.656524 30839 layer_factory.hpp:77] Creating layer relu4_1
I0129 17:58:17.656530 30839 net.cpp:84] Creating Layer relu4_1
I0129 17:58:17.656534 30839 net.cpp:406] relu4_1 <- conv4_1
I0129 17:58:17.656541 30839 net.cpp:367] relu4_1 -> conv4_1 (in-place)
I0129 17:58:17.656682 30839 net.cpp:122] Setting up relu4_1
I0129 17:58:17.656692 30839 net.cpp:129] Top shape: 256 512 7 6 (5505024)
I0129 17:58:17.656695 30839 net.cpp:137] Memory required for data: 4393012224
I0129 17:58:17.656700 30839 layer_factory.hpp:77] Creating layer conv4_1_relu4_1_0_split
I0129 17:58:17.656708 30839 net.cpp:84] Creating Layer conv4_1_relu4_1_0_split
I0129 17:58:17.656713 30839 net.cpp:406] conv4_1_relu4_1_0_split <- conv4_1
I0129 17:58:17.656718 30839 net.cpp:380] conv4_1_relu4_1_0_split -> conv4_1_relu4_1_0_split_0
I0129 17:58:17.656724 30839 net.cpp:380] conv4_1_relu4_1_0_split -> conv4_1_relu4_1_0_split_1
I0129 17:58:17.656769 30839 net.cpp:122] Setting up conv4_1_relu4_1_0_split
I0129 17:58:17.656790 30839 net.cpp:129] Top shape: 256 512 7 6 (5505024)
I0129 17:58:17.656795 30839 net.cpp:129] Top shape: 256 512 7 6 (5505024)
I0129 17:58:17.656797 30839 net.cpp:137] Memory required for data: 4437052416
I0129 17:58:17.656800 30839 layer_factory.hpp:77] Creating layer conv4_2
I0129 17:58:17.656813 30839 net.cpp:84] Creating Layer conv4_2
I0129 17:58:17.656818 30839 net.cpp:406] conv4_2 <- conv4_1_relu4_1_0_split_0
I0129 17:58:17.656826 30839 net.cpp:380] conv4_2 -> conv4_2
I0129 17:58:17.688616 30839 net.cpp:122] Setting up conv4_2
I0129 17:58:17.688642 30839 net.cpp:129] Top shape: 256 512 7 6 (5505024)
I0129 17:58:17.688645 30839 net.cpp:137] Memory required for data: 4459072512
I0129 17:58:17.688652 30839 layer_factory.hpp:77] Creating layer relu4_2
I0129 17:58:17.688658 30839 net.cpp:84] Creating Layer relu4_2
I0129 17:58:17.688663 30839 net.cpp:406] relu4_2 <- conv4_2
I0129 17:58:17.688669 30839 net.cpp:367] relu4_2 -> conv4_2 (in-place)
I0129 17:58:17.688805 30839 net.cpp:122] Setting up relu4_2
I0129 17:58:17.688822 30839 net.cpp:129] Top shape: 256 512 7 6 (5505024)
I0129 17:58:17.688824 30839 net.cpp:137] Memory required for data: 4481092608
I0129 17:58:17.688829 30839 layer_factory.hpp:77] Creating layer conv4_3
I0129 17:58:17.688839 30839 net.cpp:84] Creating Layer conv4_3
I0129 17:58:17.688843 30839 net.cpp:406] conv4_3 <- conv4_2
I0129 17:58:17.688851 30839 net.cpp:380] conv4_3 -> conv4_3
I0129 17:58:17.718802 30839 net.cpp:122] Setting up conv4_3
I0129 17:58:17.718830 30839 net.cpp:129] Top shape: 256 512 7 6 (5505024)
I0129 17:58:17.718835 30839 net.cpp:137] Memory required for data: 4503112704
I0129 17:58:17.718843 30839 layer_factory.hpp:77] Creating layer relu4_3
I0129 17:58:17.718850 30839 net.cpp:84] Creating Layer relu4_3
I0129 17:58:17.718854 30839 net.cpp:406] relu4_3 <- conv4_3
I0129 17:58:17.718859 30839 net.cpp:367] relu4_3 -> conv4_3 (in-place)
I0129 17:58:17.720177 30839 net.cpp:122] Setting up relu4_3
I0129 17:58:17.720191 30839 net.cpp:129] Top shape: 256 512 7 6 (5505024)
I0129 17:58:17.720206 30839 net.cpp:137] Memory required for data: 4525132800
I0129 17:58:17.720211 30839 layer_factory.hpp:77] Creating layer res4_3
I0129 17:58:17.720221 30839 net.cpp:84] Creating Layer res4_3
I0129 17:58:17.720226 30839 net.cpp:406] res4_3 <- conv4_1_relu4_1_0_split_1
I0129 17:58:17.720230 30839 net.cpp:406] res4_3 <- conv4_3
I0129 17:58:17.720235 30839 net.cpp:380] res4_3 -> res4_3
I0129 17:58:17.720280 30839 net.cpp:122] Setting up res4_3
I0129 17:58:17.720288 30839 net.cpp:129] Top shape: 256 512 7 6 (5505024)
I0129 17:58:17.720291 30839 net.cpp:137] Memory required for data: 4547152896
I0129 17:58:17.720294 30839 layer_factory.hpp:77] Creating layer fc5
I0129 17:58:17.720306 30839 net.cpp:84] Creating Layer fc5
I0129 17:58:17.720310 30839 net.cpp:406] fc5 <- res4_3
I0129 17:58:17.720319 30839 net.cpp:380] fc5 -> fc5
I0129 17:58:17.808136 30839 net.cpp:122] Setting up fc5
I0129 17:58:17.808202 30839 net.cpp:129] Top shape: 256 512 (131072)
I0129 17:58:17.808207 30839 net.cpp:137] Memory required for data: 4547677184
I0129 17:58:17.808239 30839 layer_factory.hpp:77] Creating layer norm1
I0129 17:58:17.808255 30839 net.cpp:84] Creating Layer norm1
I0129 17:58:17.808269 30839 net.cpp:406] norm1 <- fc5
I0129 17:58:17.808295 30839 net.cpp:380] norm1 -> norm1
I0129 17:58:17.808426 30839 net.cpp:122] Setting up norm1
I0129 17:58:17.808441 30839 net.cpp:129] Top shape: 256 512 1 1 (131072)
I0129 17:58:17.808446 30839 net.cpp:137] Memory required for data: 4548201472
I0129 17:58:17.808450 30839 layer_factory.hpp:77] Creating layer fc6_l2
I0129 17:58:17.808460 30839 net.cpp:84] Creating Layer fc6_l2
I0129 17:58:17.808465 30839 net.cpp:406] fc6_l2 <- norm1
I0129 17:58:17.808471 30839 net.cpp:380] fc6_l2 -> fc6
I0129 17:58:17.841192 30839 net.cpp:122] Setting up fc6_l2
I0129 17:58:17.841225 30839 net.cpp:129] Top shape: 256 9131 (2337536)
I0129 17:58:17.841230 30839 net.cpp:137] Memory required for data: 4557551616
I0129 17:58:17.841238 30839 layer_factory.hpp:77] Creating layer label_Margin
I0129 17:58:17.841274 30839 net.cpp:84] Creating Layer label_Margin
I0129 17:58:17.841279 30839 net.cpp:406] label_Margin <- fc6
I0129 17:58:17.841286 30839 net.cpp:406] label_Margin <- label_data_1_split_0
I0129 17:58:17.841295 30839 net.cpp:380] label_Margin -> fc6_margin
I0129 17:58:17.841344 30839 net.cpp:122] Setting up label_Margin
I0129 17:58:17.841354 30839 net.cpp:129] Top shape: 256 9131 1 1 (2337536)
I0129 17:58:17.841357 30839 net.cpp:137] Memory required for data: 4566901760
I0129 17:58:17.841361 30839 layer_factory.hpp:77] Creating layer fc6_margin_scale
I0129 17:58:17.841374 30839 net.cpp:84] Creating Layer fc6_margin_scale
I0129 17:58:17.841378 30839 net.cpp:406] fc6_margin_scale <- fc6_margin
I0129 17:58:17.841384 30839 net.cpp:380] fc6_margin_scale -> fc6_margin_scale
I0129 17:58:17.841603 30839 net.cpp:122] Setting up fc6_margin_scale
I0129 17:58:17.841614 30839 net.cpp:129] Top shape: 256 9131 1 1 (2337536)
I0129 17:58:17.841617 30839 net.cpp:137] Memory required for data: 4576251904
I0129 17:58:17.841622 30839 layer_factory.hpp:77] Creating layer softmax_loss
I0129 17:58:17.841629 30839 net.cpp:84] Creating Layer softmax_loss
I0129 17:58:17.841634 30839 net.cpp:406] softmax_loss <- fc6_margin_scale
I0129 17:58:17.841637 30839 net.cpp:406] softmax_loss <- label_data_1_split_1
I0129 17:58:17.841650 30839 net.cpp:380] softmax_loss -> softmax_loss
…
