…
I1218 14:45:17.633070 12325 net.cpp:294] The NetState phase (0) differed from the phase (1) specified by a rule in layer mnist
I1218 14:45:17.633106 12325 net.cpp:294] The NetState phase (0) differed from the phase (1) specified by a rule in layer accuracy
I1218 14:45:17.633343 12325 net.cpp:51] Initializing net from parameters: 
name: "LeNet"
state {
  phase: TRAIN
  level: 0
  stage: ""
}
layer {
  name: "mnist"
  type: "Data"
  top: "data"
  top: "label"
  include {
    phase: TRAIN
  }
  transform_param {
    scale: 0.00390625
  }
  data_param {
    source: "../centerloss/mnist_example/data/mnist_train_lmdb"
    batch_size: 256
    backend: LMDB
  }
}
layer {
  name: "conv1_1"
  type: "Convolution"
  bottom: "data"
  top: "conv1_1"
  param {
    lr_mult: 1
  }
  param {
    lr_mult: 2
  }
  convolution_param {
    num_output: 32
    pad: 2
    kernel_size: 5
    stride: 1
    weight_filler {
      type: "xavier"
    }
    bias_filler {
      type: "constant"
    }
  }
}
layer {
  name: "relu1_1"
  type: "PReLU"
  bottom: "conv1_1"
  top: "conv1_1"
}
layer {
  name: "conv1_2"
  type: "Convolution"
  bottom: "conv1_1"
  top: "conv1_2"
  param {
    lr_mult: 1
  }
  param {
    lr_mult: 2
  }
  convolution_param {
    num_output: 32
    pad: 2
    kernel_size: 5
    stride: 1
    weight_filler {
      type: "xavier"
    }
    bias_filler {
      type: "constant"
    }
  }
}
layer {
  name: "relu1_2"
  type: "PReLU"
  bottom: "conv1_2"
  top: "conv1_2"
}
layer {
  name: "pool1"
  type: "Pooling"
  bottom: "conv1_2"
  top: "pool1"
  pooling_param {
    pool: MAX
    kernel_size: 2
    stride: 2
  }
}
layer {
  name: "conv2_1"
  type: "Convolution"
  bottom: "pool1"
  top: "conv2_1"
  param {
    lr_mult: 1
  }
  param {
    lr_mult: 2
  }
  convolution_param {
    num_output: 64
    pad: 2
    kernel_size: 5
    stride: 1
    weight_filler {
      type: "xavier"
    }
    bias_filler {
      type: "constant"
    }
  }
}
layer {
  name: "relu2_1"
  type: "PReLU"
  bottom: "conv2_1"
  top: "conv2_1"
}
layer {
  name: "conv2_2"
  type: "Convolution"
  bottom: "conv2_1"
  top: "conv2_2"
  param {
    lr_mult: 1
  }
  param {
    lr_mult: 2
  }
  convolution_param {
    num_output: 64
    pad: 2
    kernel_size: 5
    stride: 1
    weight_filler {
      type: "xavier"
    }
    bias_filler {
      type: "constant"
    }
  }
}
layer {
  name: "relu2_2"
  type: "PReLU"
  bottom: "conv2_2"
  top: "conv2_2"
}
layer {
  name: "pool2"
  type: "Pooling"
  bottom: "conv2_2"
  top: "pool2"
  pooling_param {
    pool: MAX
    kernel_size: 2
    stride: 2
  }
}
layer {
  name: "conv3_1"
  type: "Convolution"
  bottom: "pool2"
  top: "conv3_1"
  param {
    lr_mult: 1
  }
  param {
    lr_mult: 2
  }
  convolution_param {
    num_output: 128
    pad: 2
    kernel_size: 5
    stride: 1
    weight_filler {
      type: "xavier"
    }
    bias_filler {
      type: "constant"
    }
  }
}
layer {
  name: "relu3_1"
  type: "PReLU"
  bottom: "conv3_1"
  top: "conv3_1"
}
layer {
  name: "conv3_2"
  type: "Convolution"
  bottom: "conv3_1"
  top: "conv3_2"
  param {
    lr_mult: 1
  }
  param {
    lr_mult: 2
  }
  convolution_param {
    num_output: 128
    pad: 2
    kernel_size: 5
    stride: 1
    weight_filler {
      type: "xavier"
    }
    bias_filler {
      type: "constant"
    }
  }
}
layer {
  name: "relu3_2"
  type: "PReLU"
  bottom: "conv3_2"
  top: "conv3_2"
}
layer {
  name: "pool3"
  type: "Pooling"
  bottom: "conv3_2"
  top: "pool3"
  pooling_param {
    pool: MAX
    kernel_size: 2
    stride: 2
  }
}
layer {
  name: "ip1"
  type: "InnerProduct"
  bottom: "pool3"
  top: "ip1"
  param {
    lr_mult: 1
  }
  param {
    lr_mult: 2
  }
  inner_product_param {
    num_output: 2
    weight_filler {
      type: "xavier"
    }
    bias_filler {
      type: "constant"
    }
  }
}
layer {
  name: "ip2"
  type: "InnerProduct"
  bottom: "ip1"
  top: "ip2"
  param {
    lr_mult: 1
  }
  param {
    lr_mult: 2
  }
  inner_product_param {
    num_output: 10
    weight_filler {
      type: "xavier"
    }
    bias_filler {
      type: "constant"
    }
  }
}
layer {
  name: "center_loss"
  type: "NewCenterLoss"
  bottom: "ip1"
  bottom: "label"
  top: "center_loss"
  new_center_loss_param {
    loss_weight: 1e-05
    alpha: 0.5
    cluster_num: 10
  }
}
layer {
  name: "Softmaxloss"
  type: "SoftmaxWithLoss"
  bottom: "ip2"
  bottom: "label"
  top: "Softmaxloss"
}
I1218 14:45:17.633780 12325 layer_factory.hpp:77] Creating layer mnist
I1218 14:45:17.633957 12325 db_lmdb.cpp:35] Opened lmdb ../centerloss/mnist_example/data/mnist_train_lmdb
I1218 14:45:17.634003 12325 net.cpp:84] Creating Layer mnist
I1218 14:45:17.634055 12325 net.cpp:380] mnist -> data
I1218 14:45:17.634126 12325 net.cpp:380] mnist -> label
I1218 14:45:17.635984 12325 data_layer.cpp:45] output data size: 256,1,28,28
I1218 14:45:17.643131 12325 net.cpp:122] Setting up mnist
I1218 14:45:17.643159 12325 net.cpp:129] Top shape: 256 1 28 28 (200704)
I1218 14:45:17.643201 12325 net.cpp:129] Top shape: 256 (256)
I1218 14:45:17.643208 12325 net.cpp:137] Memory required for data: 803840
I1218 14:45:17.643218 12325 layer_factory.hpp:77] Creating layer label_mnist_1_split
I1218 14:45:17.643236 12325 net.cpp:84] Creating Layer label_mnist_1_split
I1218 14:45:17.643254 12325 net.cpp:406] label_mnist_1_split <- label
I1218 14:45:17.643282 12325 net.cpp:380] label_mnist_1_split -> label_mnist_1_split_0
I1218 14:45:17.643306 12325 net.cpp:380] label_mnist_1_split -> label_mnist_1_split_1
I1218 14:45:17.643390 12325 net.cpp:122] Setting up label_mnist_1_split
I1218 14:45:17.643405 12325 net.cpp:129] Top shape: 256 (256)
I1218 14:45:17.643414 12325 net.cpp:129] Top shape: 256 (256)
I1218 14:45:17.643419 12325 net.cpp:137] Memory required for data: 805888
I1218 14:45:17.643424 12325 layer_factory.hpp:77] Creating layer conv1_1
I1218 14:45:17.643448 12325 net.cpp:84] Creating Layer conv1_1
I1218 14:45:17.643456 12325 net.cpp:406] conv1_1 <- data
I1218 14:45:17.643470 12325 net.cpp:380] conv1_1 -> conv1_1
I1218 14:45:18.580801 12325 net.cpp:122] Setting up conv1_1
I1218 14:45:18.580878 12325 net.cpp:129] Top shape: 256 32 28 28 (6422528)
I1218 14:45:18.580890 12325 net.cpp:137] Memory required for data: 26496000
I1218 14:45:18.580955 12325 layer_factory.hpp:77] Creating layer relu1_1
I1218 14:45:18.581002 12325 net.cpp:84] Creating Layer relu1_1
I1218 14:45:18.581018 12325 net.cpp:406] relu1_1 <- conv1_1
I1218 14:45:18.581034 12325 net.cpp:367] relu1_1 -> conv1_1 (in-place)
I1218 14:45:18.582877 12325 net.cpp:122] Setting up relu1_1
I1218 14:45:18.582901 12325 net.cpp:129] Top shape: 256 32 28 28 (6422528)
I1218 14:45:18.582931 12325 net.cpp:137] Memory required for data: 52186112
I1218 14:45:18.582948 12325 layer_factory.hpp:77] Creating layer conv1_2
I1218 14:45:18.582983 12325 net.cpp:84] Creating Layer conv1_2
I1218 14:45:18.582993 12325 net.cpp:406] conv1_2 <- conv1_1
I1218 14:45:18.583009 12325 net.cpp:380] conv1_2 -> conv1_2
I1218 14:45:18.585119 12325 net.cpp:122] Setting up conv1_2
I1218 14:45:18.585142 12325 net.cpp:129] Top shape: 256 32 28 28 (6422528)
I1218 14:45:18.585153 12325 net.cpp:137] Memory required for data: 77876224
I1218 14:45:18.585172 12325 layer_factory.hpp:77] Creating layer relu1_2
I1218 14:45:18.585187 12325 net.cpp:84] Creating Layer relu1_2
I1218 14:45:18.585197 12325 net.cpp:406] relu1_2 <- conv1_2
I1218 14:45:18.585211 12325 net.cpp:367] relu1_2 -> conv1_2 (in-place)
I1218 14:45:18.585355 12325 net.cpp:122] Setting up relu1_2
I1218 14:45:18.585384 12325 net.cpp:129] Top shape: 256 32 28 28 (6422528)
I1218 14:45:18.585463 12325 net.cpp:137] Memory required for data: 103566336
I1218 14:45:18.585515 12325 layer_factory.hpp:77] Creating layer pool1
I1218 14:45:18.585541 12325 net.cpp:84] Creating Layer pool1
I1218 14:45:18.585553 12325 net.cpp:406] pool1 <- conv1_2
I1218 14:45:18.585605 12325 net.cpp:380] pool1 -> pool1
I1218 14:45:18.585721 12325 net.cpp:122] Setting up pool1
I1218 14:45:18.585738 12325 net.cpp:129] Top shape: 256 32 14 14 (1605632)
I1218 14:45:18.585747 12325 net.cpp:137] Memory required for data: 109988864
I1218 14:45:18.585754 12325 layer_factory.hpp:77] Creating layer conv2_1
I1218 14:45:18.585775 12325 net.cpp:84] Creating Layer conv2_1
I1218 14:45:18.585788 12325 net.cpp:406] conv2_1 <- pool1
I1218 14:45:18.585804 12325 net.cpp:380] conv2_1 -> conv2_1
I1218 14:45:18.588774 12325 net.cpp:122] Setting up conv2_1
I1218 14:45:18.588799 12325 net.cpp:129] Top shape: 256 64 14 14 (3211264)
I1218 14:45:18.588810 12325 net.cpp:137] Memory required for data: 122833920
I1218 14:45:18.588829 12325 layer_factory.hpp:77] Creating layer relu2_1
I1218 14:45:18.588852 12325 net.cpp:84] Creating Layer relu2_1
I1218 14:45:18.588862 12325 net.cpp:406] relu2_1 <- conv2_1
I1218 14:45:18.588876 12325 net.cpp:367] relu2_1 -> conv2_1 (in-place)
I1218 14:45:18.590592 12325 net.cpp:122] Setting up relu2_1
I1218 14:45:18.590613 12325 net.cpp:129] Top shape: 256 64 14 14 (3211264)
I1218 14:45:18.590622 12325 net.cpp:137] Memory required for data: 135678976
I1218 14:45:18.590651 12325 layer_factory.hpp:77] Creating layer conv2_2
I1218 14:45:18.590674 12325 net.cpp:84] Creating Layer conv2_2
I1218 14:45:18.590684 12325 net.cpp:406] conv2_2 <- conv2_1
I1218 14:45:18.590709 12325 net.cpp:380] conv2_2 -> conv2_2
I1218 14:45:18.594028 12325 net.cpp:122] Setting up conv2_2
I1218 14:45:18.594055 12325 net.cpp:129] Top shape: 256 64 14 14 (3211264)
I1218 14:45:18.594068 12325 net.cpp:137] Memory required for data: 148524032
I1218 14:45:18.594084 12325 layer_factory.hpp:77] Creating layer relu2_2
I1218 14:45:18.594100 12325 net.cpp:84] Creating Layer relu2_2
I1218 14:45:18.594111 12325 net.cpp:406] relu2_2 <- conv2_2
I1218 14:45:18.594125 12325 net.cpp:367] relu2_2 -> conv2_2 (in-place)
I1218 14:45:18.594302 12325 net.cpp:122] Setting up relu2_2
I1218 14:45:18.594321 12325 net.cpp:129] Top shape: 256 64 14 14 (3211264)
I1218 14:45:18.594332 12325 net.cpp:137] Memory required for data: 161369088
I1218 14:45:18.594352 12325 layer_factory.hpp:77] Creating layer pool2
I1218 14:45:18.594372 12325 net.cpp:84] Creating Layer pool2
I1218 14:45:18.594383 12325 net.cpp:406] pool2 <- conv2_2
I1218 14:45:18.594398 12325 net.cpp:380] pool2 -> pool2
I1218 14:45:18.594472 12325 net.cpp:122] Setting up pool2
I1218 14:45:18.594491 12325 net.cpp:129] Top shape: 256 64 7 7 (802816)
I1218 14:45:18.594501 12325 net.cpp:137] Memory required for data: 164580352
I1218 14:45:18.594511 12325 layer_factory.hpp:77] Creating layer conv3_1
I1218 14:45:18.594535 12325 net.cpp:84] Creating Layer conv3_1
I1218 14:45:18.594548 12325 net.cpp:406] conv3_1 <- pool2
I1218 14:45:18.594566 12325 net.cpp:380] conv3_1 -> conv3_1
I1218 14:45:18.600807 12325 net.cpp:122] Setting up conv3_1
I1218 14:45:18.600839 12325 net.cpp:129] Top shape: 256 128 7 7 (1605632)
I1218 14:45:18.600848 12325 net.cpp:137] Memory required for data: 171002880
I1218 14:45:18.600864 12325 layer_factory.hpp:77] Creating layer relu3_1
I1218 14:45:18.600878 12325 net.cpp:84] Creating Layer relu3_1
I1218 14:45:18.600888 12325 net.cpp:406] relu3_1 <- conv3_1
I1218 14:45:18.600904 12325 net.cpp:367] relu3_1 -> conv3_1 (in-place)
I1218 14:45:18.601060 12325 net.cpp:122] Setting up relu3_1
I1218 14:45:18.601080 12325 net.cpp:129] Top shape: 256 128 7 7 (1605632)
I1218 14:45:18.601090 12325 net.cpp:137] Memory required for data: 177425408
I1218 14:45:18.601107 12325 layer_factory.hpp:77] Creating layer conv3_2
I1218 14:45:18.601130 12325 net.cpp:84] Creating Layer conv3_2
I1218 14:45:18.601140 12325 net.cpp:406] conv3_2 <- conv3_1
I1218 14:45:18.601158 12325 net.cpp:380] conv3_2 -> conv3_2
I1218 14:45:18.614369 12325 net.cpp:122] Setting up conv3_2
I1218 14:45:18.614437 12325 net.cpp:129] Top shape: 256 128 7 7 (1605632)
I1218 14:45:18.614454 12325 net.cpp:137] Memory required for data: 183847936
I1218 14:45:18.614478 12325 layer_factory.hpp:77] Creating layer relu3_2
I1218 14:45:18.614495 12325 net.cpp:84] Creating Layer relu3_2
I1218 14:45:18.614506 12325 net.cpp:406] relu3_2 <- conv3_2
I1218 14:45:18.614522 12325 net.cpp:367] relu3_2 -> conv3_2 (in-place)
I1218 14:45:18.614682 12325 net.cpp:122] Setting up relu3_2
I1218 14:45:18.614702 12325 net.cpp:129] Top shape: 256 128 7 7 (1605632)
I1218 14:45:18.614712 12325 net.cpp:137] Memory required for data: 190270464
I1218 14:45:18.614725 12325 layer_factory.hpp:77] Creating layer pool3
I1218 14:45:18.614748 12325 net.cpp:84] Creating Layer pool3
I1218 14:45:18.614758 12325 net.cpp:406] pool3 <- conv3_2
I1218 14:45:18.614771 12325 net.cpp:380] pool3 -> pool3
I1218 14:45:18.614841 12325 net.cpp:122] Setting up pool3
I1218 14:45:18.614861 12325 net.cpp:129] Top shape: 256 128 4 4 (524288)
I1218 14:45:18.614871 12325 net.cpp:137] Memory required for data: 192367616
I1218 14:45:18.614924 12325 layer_factory.hpp:77] Creating layer ip1
I1218 14:45:18.614982 12325 net.cpp:84] Creating Layer ip1
I1218 14:45:18.615006 12325 net.cpp:406] ip1 <- pool3
I1218 14:45:18.615033 12325 net.cpp:380] ip1 -> ip1
I1218 14:45:18.616953 12325 net.cpp:122] Setting up ip1
I1218 14:45:18.616977 12325 net.cpp:129] Top shape: 256 2 (512)
I1218 14:45:18.616987 12325 net.cpp:137] Memory required for data: 192369664
I1218 14:45:18.617005 12325 layer_factory.hpp:77] Creating layer ip1_ip1_0_split
I1218 14:45:18.617019 12325 net.cpp:84] Creating Layer ip1_ip1_0_split
I1218 14:45:18.617029 12325 net.cpp:406] ip1_ip1_0_split <- ip1
I1218 14:45:18.617049 12325 net.cpp:380] ip1_ip1_0_split -> ip1_ip1_0_split_0
I1218 14:45:18.617066 12325 net.cpp:380] ip1_ip1_0_split -> ip1_ip1_0_split_1
I1218 14:45:18.617123 12325 net.cpp:122] Setting up ip1_ip1_0_split
I1218 14:45:18.617138 12325 net.cpp:129] Top shape: 256 2 (512)
I1218 14:45:18.617148 12325 net.cpp:129] Top shape: 256 2 (512)
I1218 14:45:18.617157 12325 net.cpp:137] Memory required for data: 192373760
I1218 14:45:18.617167 12325 layer_factory.hpp:77] Creating layer ip2
I1218 14:45:18.617182 12325 net.cpp:84] Creating Layer ip2
I1218 14:45:18.617192 12325 net.cpp:406] ip2 <- ip1_ip1_0_split_0
I1218 14:45:18.617208 12325 net.cpp:380] ip2 -> ip2
I1218 14:45:18.617406 12325 net.cpp:122] Setting up ip2
I1218 14:45:18.617424 12325 net.cpp:129] Top shape: 256 10 (2560)
I1218 14:45:18.617432 12325 net.cpp:137] Memory required for data: 192384000
I1218 14:45:18.617447 12325 layer_factory.hpp:77] Creating layer center_loss
I1218 14:45:18.617467 12325 net.cpp:84] Creating Layer center_loss
I1218 14:45:18.617476 12325 net.cpp:406] center_loss <- ip1_ip1_0_split_1
I1218 14:45:18.617488 12325 net.cpp:406] center_loss <- label_mnist_1_split_0
I1218 14:45:18.617501 12325 net.cpp:380] center_loss -> center_loss
…
I1218 14:45:18.619071 12325 solver.cpp:172] Creating test net (#0) specified by net file: train_center_loss.prototxt
I1218 14:45:18.619127 12325 net.cpp:294] The NetState phase (1) differed from the phase (0) specified by a rule in layer mnist
I1218 14:45:18.619375 12325 net.cpp:51] Initializing net from parameters: 
name: "LeNet"
state {
  phase: TEST
}
layer {
  name: "mnist"
  type: "Data"
  top: "data"
  top: "label"
  include {
    phase: TEST
  }
  transform_param {
    scale: 0.00390625
  }
  data_param {
    source: "../centerloss/mnist_example/data/mnist_test_lmdb"
    batch_size: 100
    backend: LMDB
  }
}
layer {
  name: "conv1_1"
  type: "Convolution"
  bottom: "data"
  top: "conv1_1"
  param {
    lr_mult: 1
  }
  param {
    lr_mult: 2
  }
  convolution_param {
    num_output: 32
    pad: 2
    kernel_size: 5
    stride: 1
    weight_filler {
      type: "xavier"
    }
    bias_filler {
      type: "constant"
    }
  }
}
layer {
  name: "relu1_1"
  type: "PReLU"
  bottom: "conv1_1"
  top: "conv1_1"
}
layer {
  name: "conv1_2"
  type: "Convolution"
  bottom: "conv1_1"
  top: "conv1_2"
  param {
    lr_mult: 1
  }
  param {
    lr_mult: 2
  }
  convolution_param {
    num_output: 32
    pad: 2
    kernel_size: 5
    stride: 1
    weight_filler {
      type: "xavier"
    }
    bias_filler {
      type: "constant"
    }
  }
}
layer {
  name: "relu1_2"
  type: "PReLU"
  bottom: "conv1_2"
  top: "conv1_2"
}
layer {
  name: "pool1"
  type: "Pooling"
  bottom: "conv1_2"
  top: "pool1"
  pooling_param {
    pool: MAX
    kernel_size: 2
    stride: 2
  }
}
layer {
  name: "conv2_1"
  type: "Convolution"
  bottom: "pool1"
  top: "conv2_1"
  param {
    lr_mult: 1
  }
  param {
    lr_mult: 2
  }
  convolution_param {
    num_output: 64
    pad: 2
    kernel_size: 5
    stride: 1
    weight_filler {
      type: "xavier"
    }
    bias_filler {
      type: "constant"
    }
  }
}
layer {
  name: "relu2_1"
  type: "PReLU"
  bottom: "conv2_1"
  top: "conv2_1"
}
layer {
  name: "conv2_2"
  type: "Convolution"
  bottom: "conv2_1"
  top: "conv2_2"
  param {
    lr_mult: 1
  }
  param {
    lr_mult: 2
  }
  convolution_param {
    num_output: 64
    pad: 2
    kernel_size: 5
    stride: 1
    weight_filler {
      type: "xavier"
    }
    bias_filler {
      type: "constant"
    }
  }
}
layer {
  name: "relu2_2"
  type: "PReLU"
  bottom: "conv2_2"
  top: "conv2_2"
}
layer {
  name: "pool2"
  type: "Pooling"
  bottom: "conv2_2"
  top: "pool2"
  pooling_param {
    pool: MAX
    kernel_size: 2
    stride: 2
  }
}
layer {
  name: "conv3_1"
  type: "Convolution"
  bottom: "pool2"
  top: "conv3_1"
  param {
    lr_mult: 1
  }
  param {
    lr_mult: 2
  }
  convolution_param {
    num_output: 128
    pad: 2
    kernel_size: 5
    stride: 1
    weight_filler {
      type: "xavier"
    }
    bias_filler {
      type: "constant"
    }
  }
}
layer {
  name: "relu3_1"
  type: "PReLU"
  bottom: "conv3_1"
  top: "conv3_1"
}
layer {
  name: "conv3_2"
  type: "Convolution"
  bottom: "conv3_1"
  top: "conv3_2"
  param {
    lr_mult: 1
  }
  param {
    lr_mult: 2
  }
  convolution_param {
    num_output: 128
    pad: 2
    kernel_size: 5
    stride: 1
    weight_filler {
      type: "xavier"
    }
    bias_filler {
      type: "constant"
    }
  }
}
layer {
  name: "relu3_2"
  type: "PReLU"
  bottom: "conv3_2"
  top: "conv3_2"
}
layer {
  name: "pool3"
  type: "Pooling"
  bottom: "conv3_2"
  top: "pool3"
  pooling_param {
    pool: MAX
    kernel_size: 2
    stride: 2
  }
}
layer {
  name: "ip1"
  type: "InnerProduct"
  bottom: "pool3"
  top: "ip1"
  param {
    lr_mult: 1
  }
  param {
    lr_mult: 2
  }
  inner_product_param {
    num_output: 2
    weight_filler {
      type: "xavier"
    }
    bias_filler {
      type: "constant"
    }
  }
}
layer {
  name: "ip2"
  type: "InnerProduct"
  bottom: "ip1"
  top: "ip2"
  param {
    lr_mult: 1
  }
  param {
    lr_mult: 2
  }
  inner_product_param {
    num_output: 10
    weight_filler {
      type: "xavier"
    }
    bias_filler {
      type: "constant"
    }
  }
}
layer {
  name: "center_loss"
  type: "NewCenterLoss"
  bottom: "ip1"
  bottom: "label"
  top: "center_loss"
  new_center_loss_param {
    loss_weight: 1e-05
    alpha: 0.5
    cluster_num: 10
  }
}
layer {
  name: "accuracy"
  type: "Accuracy"
  bottom: "ip2"
  bottom: "label"
  top: "accuracy"
  include {
    phase: TEST
  }
}
layer {
  name: "Softmaxloss"
  type: "SoftmaxWithLoss"
  bottom: "ip2"
  bottom: "label"
  top: "Softmaxloss"
}
I1218 14:45:18.619956 12325 layer_factory.hpp:77] Creating layer mnist
I1218 14:45:18.620079 12325 db_lmdb.cpp:35] Opened lmdb ../centerloss/mnist_example/data/mnist_test_lmdb
I1218 14:45:18.620106 12325 net.cpp:84] Creating Layer mnist
I1218 14:45:18.620123 12325 net.cpp:380] mnist -> data
I1218 14:45:18.620141 12325 net.cpp:380] mnist -> label
I1218 14:45:18.620303 12325 data_layer.cpp:45] output data size: 100,1,28,28
I1218 14:45:18.622048 12325 net.cpp:122] Setting up mnist
I1218 14:45:18.622071 12325 net.cpp:129] Top shape: 100 1 28 28 (78400)
I1218 14:45:18.622083 12325 net.cpp:129] Top shape: 100 (100)
I1218 14:45:18.622092 12325 net.cpp:137] Memory required for data: 314000
I1218 14:45:18.622102 12325 layer_factory.hpp:77] Creating layer label_mnist_1_split
I1218 14:45:18.622117 12325 net.cpp:84] Creating Layer label_mnist_1_split
I1218 14:45:18.622129 12325 net.cpp:406] label_mnist_1_split <- label
I1218 14:45:18.622146 12325 net.cpp:380] label_mnist_1_split -> label_mnist_1_split_0
I1218 14:45:18.622164 12325 net.cpp:380] label_mnist_1_split -> label_mnist_1_split_1
I1218 14:45:18.622182 12325 net.cpp:380] label_mnist_1_split -> label_mnist_1_split_2
I1218 14:45:18.622280 12325 net.cpp:122] Setting up label_mnist_1_split
I1218 14:45:18.622297 12325 net.cpp:129] Top shape: 100 (100)
I1218 14:45:18.622308 12325 net.cpp:129] Top shape: 100 (100)
I1218 14:45:18.622318 12325 net.cpp:129] Top shape: 100 (100)
I1218 14:45:18.622326 12325 net.cpp:137] Memory required for data: 315200
I1218 14:45:18.622335 12325 layer_factory.hpp:77] Creating layer conv1_1
I1218 14:45:18.622359 12325 net.cpp:84] Creating Layer conv1_1
I1218 14:45:18.622368 12325 net.cpp:406] conv1_1 <- data
I1218 14:45:18.622396 12325 net.cpp:380] conv1_1 -> conv1_1
I1218 14:45:18.624646 12325 net.cpp:122] Setting up conv1_1
I1218 14:45:18.624671 12325 net.cpp:129] Top shape: 100 32 28 28 (2508800)
I1218 14:45:18.624699 12325 net.cpp:137] Memory required for data: 10350400
I1218 14:45:18.624737 12325 layer_factory.hpp:77] Creating layer relu1_1
I1218 14:45:18.624752 12325 net.cpp:84] Creating Layer relu1_1
I1218 14:45:18.624763 12325 net.cpp:406] relu1_1 <- conv1_1
I1218 14:45:18.624774 12325 net.cpp:367] relu1_1 -> conv1_1 (in-place)
I1218 14:45:18.625010 12325 net.cpp:122] Setting up relu1_1
I1218 14:45:18.625027 12325 net.cpp:129] Top shape: 100 32 28 28 (2508800)
I1218 14:45:18.625039 12325 net.cpp:137] Memory required for data: 20385600
I1218 14:45:18.625056 12325 layer_factory.hpp:77] Creating layer conv1_2
I1218 14:45:18.625079 12325 net.cpp:84] Creating Layer conv1_2
I1218 14:45:18.625090 12325 net.cpp:406] conv1_2 <- conv1_1
I1218 14:45:18.625105 12325 net.cpp:380] conv1_2 -> conv1_2
I1218 14:45:18.628449 12325 net.cpp:122] Setting up conv1_2
I1218 14:45:18.628473 12325 net.cpp:129] Top shape: 100 32 28 28 (2508800)
I1218 14:45:18.628482 12325 net.cpp:137] Memory required for data: 30420800
I1218 14:45:18.628500 12325 layer_factory.hpp:77] Creating layer relu1_2
I1218 14:45:18.628516 12325 net.cpp:84] Creating Layer relu1_2
I1218 14:45:18.628531 12325 net.cpp:406] relu1_2 <- conv1_2
I1218 14:45:18.628588 12325 net.cpp:367] relu1_2 -> conv1_2 (in-place)
I1218 14:45:18.628760 12325 net.cpp:122] Setting up relu1_2
I1218 14:45:18.628789 12325 net.cpp:129] Top shape: 100 32 28 28 (2508800)
I1218 14:45:18.628799 12325 net.cpp:137] Memory required for data: 40456000
I1218 14:45:18.628813 12325 layer_factory.hpp:77] Creating layer pool1
I1218 14:45:18.628829 12325 net.cpp:84] Creating Layer pool1
I1218 14:45:18.628839 12325 net.cpp:406] pool1 <- conv1_2
I1218 14:45:18.628851 12325 net.cpp:380] pool1 -> pool1
I1218 14:45:18.628918 12325 net.cpp:122] Setting up pool1
I1218 14:45:18.628934 12325 net.cpp:129] Top shape: 100 32 14 14 (627200)
I1218 14:45:18.628943 12325 net.cpp:137] Memory required for data: 42964800
I1218 14:45:18.628953 12325 layer_factory.hpp:77] Creating layer conv2_1
I1218 14:45:18.628973 12325 net.cpp:84] Creating Layer conv2_1
I1218 14:45:18.628981 12325 net.cpp:406] conv2_1 <- pool1
I1218 14:45:18.628995 12325 net.cpp:380] conv2_1 -> conv2_1
I1218 14:45:18.635099 12325 net.cpp:122] Setting up conv2_1
I1218 14:45:18.635123 12325 net.cpp:129] Top shape: 100 64 14 14 (1254400)
I1218 14:45:18.635133 12325 net.cpp:137] Memory required for data: 47982400
I1218 14:45:18.635148 12325 layer_factory.hpp:77] Creating layer relu2_1
I1218 14:45:18.635164 12325 net.cpp:84] Creating Layer relu2_1
I1218 14:45:18.635175 12325 net.cpp:406] relu2_1 <- conv2_1
I1218 14:45:18.635195 12325 net.cpp:367] relu2_1 -> conv2_1 (in-place)
I1218 14:45:18.635354 12325 net.cpp:122] Setting up relu2_1
I1218 14:45:18.635371 12325 net.cpp:129] Top shape: 100 64 14 14 (1254400)
I1218 14:45:18.635380 12325 net.cpp:137] Memory required for data: 53000000
I1218 14:45:18.635398 12325 layer_factory.hpp:77] Creating layer conv2_2
I1218 14:45:18.635418 12325 net.cpp:84] Creating Layer conv2_2
I1218 14:45:18.635442 12325 net.cpp:406] conv2_2 <- conv2_1
I1218 14:45:18.635459 12325 net.cpp:380] conv2_2 -> conv2_2
I1218 14:45:18.638701 12325 net.cpp:122] Setting up conv2_2
I1218 14:45:18.638725 12325 net.cpp:129] Top shape: 100 64 14 14 (1254400)
I1218 14:45:18.638736 12325 net.cpp:137] Memory required for data: 58017600
I1218 14:45:18.638751 12325 layer_factory.hpp:77] Creating layer relu2_2
I1218 14:45:18.638763 12325 net.cpp:84] Creating Layer relu2_2
I1218 14:45:18.638774 12325 net.cpp:406] relu2_2 <- conv2_2
I1218 14:45:18.638787 12325 net.cpp:367] relu2_2 -> conv2_2 (in-place)
I1218 14:45:18.638954 12325 net.cpp:122] Setting up relu2_2
I1218 14:45:18.638975 12325 net.cpp:129] Top shape: 100 64 14 14 (1254400)
I1218 14:45:18.638984 12325 net.cpp:137] Memory required for data: 63035200
I1218 14:45:18.638996 12325 layer_factory.hpp:77] Creating layer pool2
I1218 14:45:18.639010 12325 net.cpp:84] Creating Layer pool2
I1218 14:45:18.639020 12325 net.cpp:406] pool2 <- conv2_2
I1218 14:45:18.639032 12325 net.cpp:380] pool2 -> pool2
I1218 14:45:18.639118 12325 net.cpp:122] Setting up pool2
I1218 14:45:18.639142 12325 net.cpp:129] Top shape: 100 64 7 7 (313600)
I1218 14:45:18.639154 12325 net.cpp:137] Memory required for data: 64289600
I1218 14:45:18.639165 12325 layer_factory.hpp:77] Creating layer conv3_1
I1218 14:45:18.639192 12325 net.cpp:84] Creating Layer conv3_1
I1218 14:45:18.639209 12325 net.cpp:406] conv3_1 <- pool2
I1218 14:45:18.639231 12325 net.cpp:380] conv3_1 -> conv3_1
I1218 14:45:18.648211 12325 net.cpp:122] Setting up conv3_1
I1218 14:45:18.648236 12325 net.cpp:129] Top shape: 100 128 7 7 (627200)
I1218 14:45:18.648246 12325 net.cpp:137] Memory required for data: 66798400
I1218 14:45:18.648262 12325 layer_factory.hpp:77] Creating layer relu3_1
I1218 14:45:18.648274 12325 net.cpp:84] Creating Layer relu3_1
I1218 14:45:18.648285 12325 net.cpp:406] relu3_1 <- conv3_1
I1218 14:45:18.648300 12325 net.cpp:367] relu3_1 -> conv3_1 (in-place)
I1218 14:45:18.648447 12325 net.cpp:122] Setting up relu3_1
I1218 14:45:18.648468 12325 net.cpp:129] Top shape: 100 128 7 7 (627200)
I1218 14:45:18.648476 12325 net.cpp:137] Memory required for data: 69307200
I1218 14:45:18.648488 12325 layer_factory.hpp:77] Creating layer conv3_2
I1218 14:45:18.648504 12325 net.cpp:84] Creating Layer conv3_2
I1218 14:45:18.648512 12325 net.cpp:406] conv3_2 <- conv3_1
I1218 14:45:18.648530 12325 net.cpp:380] conv3_2 -> conv3_2
I1218 14:45:18.661515 12325 net.cpp:122] Setting up conv3_2
I1218 14:45:18.661547 12325 net.cpp:129] Top shape: 100 128 7 7 (627200)
I1218 14:45:18.661557 12325 net.cpp:137] Memory required for data: 71816000
I1218 14:45:18.661581 12325 layer_factory.hpp:77] Creating layer relu3_2
I1218 14:45:18.661600 12325 net.cpp:84] Creating Layer relu3_2
I1218 14:45:18.661612 12325 net.cpp:406] relu3_2 <- conv3_2
I1218 14:45:18.661624 12325 net.cpp:367] relu3_2 -> conv3_2 (in-place)
I1218 14:45:18.661772 12325 net.cpp:122] Setting up relu3_2
I1218 14:45:18.661792 12325 net.cpp:129] Top shape: 100 128 7 7 (627200)
I1218 14:45:18.661801 12325 net.cpp:137] Memory required for data: 74324800
I1218 14:45:18.661813 12325 layer_factory.hpp:77] Creating layer pool3
I1218 14:45:18.661834 12325 net.cpp:84] Creating Layer pool3
I1218 14:45:18.661844 12325 net.cpp:406] pool3 <- conv3_2
I1218 14:45:18.661856 12325 net.cpp:380] pool3 -> pool3
I1218 14:45:18.661926 12325 net.cpp:122] Setting up pool3
I1218 14:45:18.661942 12325 net.cpp:129] Top shape: 100 128 4 4 (204800)
I1218 14:45:18.661952 12325 net.cpp:137] Memory required for data: 75144000
I1218 14:45:18.661960 12325 layer_factory.hpp:77] Creating layer ip1
I1218 14:45:18.661979 12325 net.cpp:84] Creating Layer ip1
I1218 14:45:18.661988 12325 net.cpp:406] ip1 <- pool3
I1218 14:45:18.662004 12325 net.cpp:380] ip1 -> ip1
I1218 14:45:18.662219 12325 net.cpp:122] Setting up ip1
I1218 14:45:18.662235 12325 net.cpp:129] Top shape: 100 2 (200)
I1218 14:45:18.662245 12325 net.cpp:137] Memory required for data: 75144800
I1218 14:45:18.662258 12325 layer_factory.hpp:77] Creating layer ip1_ip1_0_split
I1218 14:45:18.662272 12325 net.cpp:84] Creating Layer ip1_ip1_0_split
I1218 14:45:18.662281 12325 net.cpp:406] ip1_ip1_0_split <- ip1
I1218 14:45:18.662310 12325 net.cpp:380] ip1_ip1_0_split -> ip1_ip1_0_split_0
I1218 14:45:18.662328 12325 net.cpp:380] ip1_ip1_0_split -> ip1_ip1_0_split_1
I1218 14:45:18.662398 12325 net.cpp:122] Setting up ip1_ip1_0_split
I1218 14:45:18.662415 12325 net.cpp:129] Top shape: 100 2 (200)
I1218 14:45:18.662426 12325 net.cpp:129] Top shape: 100 2 (200)
I1218 14:45:18.662436 12325 net.cpp:137] Memory required for data: 75146400
I1218 14:45:18.662444 12325 layer_factory.hpp:77] Creating layer ip2
I1218 14:45:18.662458 12325 net.cpp:84] Creating Layer ip2
I1218 14:45:18.662467 12325 net.cpp:406] ip2 <- ip1_ip1_0_split_0
I1218 14:45:18.662482 12325 net.cpp:380] ip2 -> ip2
I1218 14:45:18.662648 12325 net.cpp:122] Setting up ip2
I1218 14:45:18.662665 12325 net.cpp:129] Top shape: 100 10 (1000)
I1218 14:45:18.662674 12325 net.cpp:137] Memory required for data: 75150400
I1218 14:45:18.662688 12325 layer_factory.hpp:77] Creating layer ip2_ip2_0_split
I1218 14:45:18.662731 12325 net.cpp:84] Creating Layer ip2_ip2_0_split
I1218 14:45:18.662742 12325 net.cpp:406] ip2_ip2_0_split <- ip2
I1218 14:45:18.662755 12325 net.cpp:380] ip2_ip2_0_split -> ip2_ip2_0_split_0
I1218 14:45:18.662772 12325 net.cpp:380] ip2_ip2_0_split -> ip2_ip2_0_split_1
I1218 14:45:18.662834 12325 net.cpp:122] Setting up ip2_ip2_0_split
I1218 14:45:18.662849 12325 net.cpp:129] Top shape: 100 10 (1000)
I1218 14:45:18.662860 12325 net.cpp:129] Top shape: 100 10 (1000)
I1218 14:45:18.662868 12325 net.cpp:137] Memory required for data: 75158400
I1218 14:45:18.662878 12325 layer_factory.hpp:77] Creating layer center_loss
I1218 14:45:18.662892 12325 net.cpp:84] Creating Layer center_loss
I1218 14:45:18.662902 12325 net.cpp:406] center_loss <- ip1_ip1_0_split_1
I1218 14:45:18.662914 12325 net.cpp:406] center_loss <- label_mnist_1_split_0
I1218 14:45:18.662926 12325 net.cpp:380] center_loss -> center_loss
…
