…
I1218 11:10:08.176976   848 net.cpp:294] The NetState phase (0) differed from the phase (1) specified by a rule in layer mnist
I1218 11:10:08.177012   848 net.cpp:294] The NetState phase (0) differed from the phase (1) specified by a rule in layer accuracy
I1218 11:10:08.177251   848 net.cpp:51] Initializing net from parameters: 
name: "LeNet"
state {
  phase: TRAIN
  level: 0
  stage: ""
}
layer {
  name: "mnist"
  type: "Data"
  top: "data"
  top: "label"
  include {
    phase: TRAIN
  }
  transform_param {
    scale: 0.00390625
  }
  data_param {
    source: "../centerloss/mnist_example/data/mnist_train_lmdb"
    batch_size: 256
    backend: LMDB
  }
}
layer {
  name: "conv1_1"
  type: "Convolution"
  bottom: "data"
  top: "conv1_1"
  param {
    lr_mult: 1
  }
  param {
    lr_mult: 2
  }
  convolution_param {
    num_output: 32
    pad: 2
    kernel_size: 5
    stride: 1
    weight_filler {
      type: "xavier"
    }
    bias_filler {
      type: "constant"
    }
  }
}
layer {
  name: "relu1_1"
  type: "PReLU"
  bottom: "conv1_1"
  top: "conv1_1"
}
layer {
  name: "conv1_2"
  type: "Convolution"
  bottom: "conv1_1"
  top: "conv1_2"
  param {
    lr_mult: 1
  }
  param {
    lr_mult: 2
  }
  convolution_param {
    num_output: 32
    pad: 2
    kernel_size: 5
    stride: 1
    weight_filler {
      type: "xavier"
    }
    bias_filler {
      type: "constant"
    }
  }
}
layer {
  name: "relu1_2"
  type: "PReLU"
  bottom: "conv1_2"
  top: "conv1_2"
}
layer {
  name: "pool1"
  type: "Pooling"
  bottom: "conv1_2"
  top: "pool1"
  pooling_param {
    pool: MAX
    kernel_size: 2
    stride: 2
  }
}
layer {
  name: "conv2_1"
  type: "Convolution"
  bottom: "pool1"
  top: "conv2_1"
  param {
    lr_mult: 1
  }
  param {
    lr_mult: 2
  }
  convolution_param {
    num_output: 64
    pad: 2
    kernel_size: 5
    stride: 1
    weight_filler {
      type: "xavier"
    }
    bias_filler {
      type: "constant"
    }
  }
}
layer {
  name: "relu2_1"
  type: "PReLU"
  bottom: "conv2_1"
  top: "conv2_1"
}
layer {
  name: "conv2_2"
  type: "Convolution"
  bottom: "conv2_1"
  top: "conv2_2"
  param {
    lr_mult: 1
  }
  param {
    lr_mult: 2
  }
  convolution_param {
    num_output: 64
    pad: 2
    kernel_size: 5
    stride: 1
    weight_filler {
      type: "xavier"
    }
    bias_filler {
      type: "constant"
    }
  }
}
layer {
  name: "relu2_2"
  type: "PReLU"
  bottom: "conv2_2"
  top: "conv2_2"
}
layer {
  name: "pool2"
  type: "Pooling"
  bottom: "conv2_2"
  top: "pool2"
  pooling_param {
    pool: MAX
    kernel_size: 2
    stride: 2
  }
}
layer {
  name: "conv3_1"
  type: "Convolution"
  bottom: "pool2"
  top: "conv3_1"
  param {
    lr_mult: 1
  }
  param {
    lr_mult: 2
  }
  convolution_param {
    num_output: 128
    pad: 2
    kernel_size: 5
    stride: 1
    weight_filler {
      type: "xavier"
    }
    bias_filler {
      type: "constant"
    }
  }
}
layer {
  name: "relu3_1"
  type: "PReLU"
  bottom: "conv3_1"
  top: "conv3_1"
}
layer {
  name: "conv3_2"
  type: "Convolution"
  bottom: "conv3_1"
  top: "conv3_2"
  param {
    lr_mult: 1
  }
  param {
    lr_mult: 2
  }
  convolution_param {
    num_output: 128
    pad: 2
    kernel_size: 5
    stride: 1
    weight_filler {
      type: "xavier"
    }
    bias_filler {
      type: "constant"
    }
  }
}
layer {
  name: "relu3_2"
  type: "PReLU"
  bottom: "conv3_2"
  top: "conv3_2"
}
layer {
  name: "pool3"
  type: "Pooling"
  bottom: "conv3_2"
  top: "pool3"
  pooling_param {
    pool: MAX
    kernel_size: 2
    stride: 2
  }
}
layer {
  name: "ip1"
  type: "InnerProduct"
  bottom: "pool3"
  top: "ip1"
  param {
    lr_mult: 1
  }
  param {
    lr_mult: 2
  }
  inner_product_param {
    num_output: 2
    weight_filler {
      type: "xavier"
    }
    bias_filler {
      type: "constant"
    }
  }
}
layer {
  name: "ip2"
  type: "InnerProduct"
  bottom: "ip1"
  top: "ip2"
  param {
    lr_mult: 1
  }
  param {
    lr_mult: 2
  }
  inner_product_param {
    num_output: 10
    weight_filler {
      type: "xavier"
    }
    bias_filler {
      type: "constant"
    }
  }
}
layer {
  name: "center_loss"
  type: "NewCenterLoss"
  bottom: "ip1"
  bottom: "label"
  top: "center_loss"
  new_center_loss_param {
    loss_weight: 0.3
    alpha: 0.5
    cluster_num: 10
  }
}
layer {
  name: "loss"
  type: "SoftmaxWithLoss"
  bottom: "ip2"
  bottom: "label"
  top: "loss"
}
I1218 11:10:08.177563   848 layer_factory.hpp:77] Creating layer mnist
I1218 11:10:08.177737   848 db_lmdb.cpp:35] Opened lmdb ../centerloss/mnist_example/data/mnist_train_lmdb
I1218 11:10:08.177781   848 net.cpp:84] Creating Layer mnist
I1218 11:10:08.177801   848 net.cpp:380] mnist -> data
I1218 11:10:08.177841   848 net.cpp:380] mnist -> label
I1218 11:10:08.179925   848 data_layer.cpp:45] output data size: 256,1,28,28
I1218 11:10:08.192090   848 net.cpp:122] Setting up mnist
I1218 11:10:08.192137   848 net.cpp:129] Top shape: 256 1 28 28 (200704)
I1218 11:10:08.192150   848 net.cpp:129] Top shape: 256 (256)
I1218 11:10:08.192159   848 net.cpp:137] Memory required for data: 803840
I1218 11:10:08.192174   848 layer_factory.hpp:77] Creating layer label_mnist_1_split
I1218 11:10:08.192199   848 net.cpp:84] Creating Layer label_mnist_1_split
I1218 11:10:08.192214   848 net.cpp:406] label_mnist_1_split <- label
I1218 11:10:08.192236   848 net.cpp:380] label_mnist_1_split -> label_mnist_1_split_0
I1218 11:10:08.192257   848 net.cpp:380] label_mnist_1_split -> label_mnist_1_split_1
I1218 11:10:08.196344   848 net.cpp:122] Setting up label_mnist_1_split
I1218 11:10:08.196409   848 net.cpp:129] Top shape: 256 (256)
I1218 11:10:08.196421   848 net.cpp:129] Top shape: 256 (256)
I1218 11:10:08.196431   848 net.cpp:137] Memory required for data: 805888
I1218 11:10:08.196476   848 layer_factory.hpp:77] Creating layer conv1_1
I1218 11:10:08.196511   848 net.cpp:84] Creating Layer conv1_1
I1218 11:10:08.196524   848 net.cpp:406] conv1_1 <- data
I1218 11:10:08.196552   848 net.cpp:380] conv1_1 -> conv1_1
I1218 11:10:09.102897   848 net.cpp:122] Setting up conv1_1
I1218 11:10:09.102967   848 net.cpp:129] Top shape: 256 32 28 28 (6422528)
I1218 11:10:09.102977   848 net.cpp:137] Memory required for data: 26496000
I1218 11:10:09.103035   848 layer_factory.hpp:77] Creating layer relu1_1
I1218 11:10:09.103094   848 net.cpp:84] Creating Layer relu1_1
I1218 11:10:09.103106   848 net.cpp:406] relu1_1 <- conv1_1
I1218 11:10:09.103118   848 net.cpp:367] relu1_1 -> conv1_1 (in-place)
I1218 11:10:09.104950   848 net.cpp:122] Setting up relu1_1
I1218 11:10:09.104972   848 net.cpp:129] Top shape: 256 32 28 28 (6422528)
I1218 11:10:09.104982   848 net.cpp:137] Memory required for data: 52186112
I1218 11:10:09.104998   848 layer_factory.hpp:77] Creating layer conv1_2
I1218 11:10:09.105024   848 net.cpp:84] Creating Layer conv1_2
I1218 11:10:09.105036   848 net.cpp:406] conv1_2 <- conv1_1
I1218 11:10:09.105048   848 net.cpp:380] conv1_2 -> conv1_2
I1218 11:10:09.107110   848 net.cpp:122] Setting up conv1_2
I1218 11:10:09.107133   848 net.cpp:129] Top shape: 256 32 28 28 (6422528)
I1218 11:10:09.107143   848 net.cpp:137] Memory required for data: 77876224
I1218 11:10:09.107161   848 layer_factory.hpp:77] Creating layer relu1_2
I1218 11:10:09.107172   848 net.cpp:84] Creating Layer relu1_2
I1218 11:10:09.107182   848 net.cpp:406] relu1_2 <- conv1_2
I1218 11:10:09.107194   848 net.cpp:367] relu1_2 -> conv1_2 (in-place)
I1218 11:10:09.107328   848 net.cpp:122] Setting up relu1_2
I1218 11:10:09.107347   848 net.cpp:129] Top shape: 256 32 28 28 (6422528)
I1218 11:10:09.107355   848 net.cpp:137] Memory required for data: 103566336
I1218 11:10:09.107445   848 layer_factory.hpp:77] Creating layer pool1
I1218 11:10:09.107470   848 net.cpp:84] Creating Layer pool1
I1218 11:10:09.107481   848 net.cpp:406] pool1 <- conv1_2
I1218 11:10:09.107493   848 net.cpp:380] pool1 -> pool1
I1218 11:10:09.107568   848 net.cpp:122] Setting up pool1
I1218 11:10:09.107583   848 net.cpp:129] Top shape: 256 32 14 14 (1605632)
I1218 11:10:09.107592   848 net.cpp:137] Memory required for data: 109988864
I1218 11:10:09.107601   848 layer_factory.hpp:77] Creating layer conv2_1
I1218 11:10:09.107620   848 net.cpp:84] Creating Layer conv2_1
I1218 11:10:09.107630   848 net.cpp:406] conv2_1 <- pool1
I1218 11:10:09.107645   848 net.cpp:380] conv2_1 -> conv2_1
I1218 11:10:09.110641   848 net.cpp:122] Setting up conv2_1
I1218 11:10:09.110663   848 net.cpp:129] Top shape: 256 64 14 14 (3211264)
I1218 11:10:09.110674   848 net.cpp:137] Memory required for data: 122833920
I1218 11:10:09.110690   848 layer_factory.hpp:77] Creating layer relu2_1
I1218 11:10:09.110707   848 net.cpp:84] Creating Layer relu2_1
I1218 11:10:09.110716   848 net.cpp:406] relu2_1 <- conv2_1
I1218 11:10:09.110729   848 net.cpp:367] relu2_1 -> conv2_1 (in-place)
I1218 11:10:09.112516   848 net.cpp:122] Setting up relu2_1
I1218 11:10:09.112557   848 net.cpp:129] Top shape: 256 64 14 14 (3211264)
I1218 11:10:09.112568   848 net.cpp:137] Memory required for data: 135678976
I1218 11:10:09.112591   848 layer_factory.hpp:77] Creating layer conv2_2
I1218 11:10:09.112625   848 net.cpp:84] Creating Layer conv2_2
I1218 11:10:09.112638   848 net.cpp:406] conv2_2 <- conv2_1
I1218 11:10:09.112654   848 net.cpp:380] conv2_2 -> conv2_2
I1218 11:10:09.115136   848 net.cpp:122] Setting up conv2_2
I1218 11:10:09.115159   848 net.cpp:129] Top shape: 256 64 14 14 (3211264)
I1218 11:10:09.115165   848 net.cpp:137] Memory required for data: 148524032
I1218 11:10:09.115175   848 layer_factory.hpp:77] Creating layer relu2_2
I1218 11:10:09.115202   848 net.cpp:84] Creating Layer relu2_2
I1218 11:10:09.115236   848 net.cpp:406] relu2_2 <- conv2_2
I1218 11:10:09.115275   848 net.cpp:367] relu2_2 -> conv2_2 (in-place)
I1218 11:10:09.115404   848 net.cpp:122] Setting up relu2_2
I1218 11:10:09.115418   848 net.cpp:129] Top shape: 256 64 14 14 (3211264)
I1218 11:10:09.115459   848 net.cpp:137] Memory required for data: 161369088
I1218 11:10:09.115483   848 layer_factory.hpp:77] Creating layer pool2
I1218 11:10:09.115496   848 net.cpp:84] Creating Layer pool2
I1218 11:10:09.115504   848 net.cpp:406] pool2 <- conv2_2
I1218 11:10:09.115512   848 net.cpp:380] pool2 -> pool2
I1218 11:10:09.115566   848 net.cpp:122] Setting up pool2
I1218 11:10:09.115578   848 net.cpp:129] Top shape: 256 64 7 7 (802816)
I1218 11:10:09.115586   848 net.cpp:137] Memory required for data: 164580352
I1218 11:10:09.115591   848 layer_factory.hpp:77] Creating layer conv3_1
I1218 11:10:09.115607   848 net.cpp:84] Creating Layer conv3_1
I1218 11:10:09.115658   848 net.cpp:406] conv3_1 <- pool2
I1218 11:10:09.115679   848 net.cpp:380] conv3_1 -> conv3_1
I1218 11:10:09.121546   848 net.cpp:122] Setting up conv3_1
I1218 11:10:09.121598   848 net.cpp:129] Top shape: 256 128 7 7 (1605632)
I1218 11:10:09.121609   848 net.cpp:137] Memory required for data: 171002880
I1218 11:10:09.121637   848 layer_factory.hpp:77] Creating layer relu3_1
I1218 11:10:09.121659   848 net.cpp:84] Creating Layer relu3_1
I1218 11:10:09.121670   848 net.cpp:406] relu3_1 <- conv3_1
I1218 11:10:09.121688   848 net.cpp:367] relu3_1 -> conv3_1 (in-place)
I1218 11:10:09.121865   848 net.cpp:122] Setting up relu3_1
I1218 11:10:09.121886   848 net.cpp:129] Top shape: 256 128 7 7 (1605632)
I1218 11:10:09.121894   848 net.cpp:137] Memory required for data: 177425408
I1218 11:10:09.121907   848 layer_factory.hpp:77] Creating layer conv3_2
I1218 11:10:09.121937   848 net.cpp:84] Creating Layer conv3_2
I1218 11:10:09.121948   848 net.cpp:406] conv3_2 <- conv3_1
I1218 11:10:09.121963   848 net.cpp:380] conv3_2 -> conv3_2
I1218 11:10:09.130755   848 net.cpp:122] Setting up conv3_2
I1218 11:10:09.130790   848 net.cpp:129] Top shape: 256 128 7 7 (1605632)
I1218 11:10:09.130844   848 net.cpp:137] Memory required for data: 183847936
I1218 11:10:09.130873   848 layer_factory.hpp:77] Creating layer relu3_2
I1218 11:10:09.130890   848 net.cpp:84] Creating Layer relu3_2
I1218 11:10:09.130900   848 net.cpp:406] relu3_2 <- conv3_2
I1218 11:10:09.130913   848 net.cpp:367] relu3_2 -> conv3_2 (in-place)
I1218 11:10:09.131057   848 net.cpp:122] Setting up relu3_2
I1218 11:10:09.131075   848 net.cpp:129] Top shape: 256 128 7 7 (1605632)
I1218 11:10:09.131085   848 net.cpp:137] Memory required for data: 190270464
I1218 11:10:09.131108   848 layer_factory.hpp:77] Creating layer pool3
I1218 11:10:09.131130   848 net.cpp:84] Creating Layer pool3
I1218 11:10:09.131140   848 net.cpp:406] pool3 <- conv3_2
I1218 11:10:09.131153   848 net.cpp:380] pool3 -> pool3
I1218 11:10:09.131222   848 net.cpp:122] Setting up pool3
I1218 11:10:09.131237   848 net.cpp:129] Top shape: 256 128 4 4 (524288)
I1218 11:10:09.131247   848 net.cpp:137] Memory required for data: 192367616
I1218 11:10:09.131254   848 layer_factory.hpp:77] Creating layer ip1
I1218 11:10:09.131273   848 net.cpp:84] Creating Layer ip1
I1218 11:10:09.131280   848 net.cpp:406] ip1 <- pool3
I1218 11:10:09.131294   848 net.cpp:380] ip1 -> ip1
I1218 11:10:09.132949   848 net.cpp:122] Setting up ip1
I1218 11:10:09.132968   848 net.cpp:129] Top shape: 256 2 (512)
I1218 11:10:09.132975   848 net.cpp:137] Memory required for data: 192369664
I1218 11:10:09.132985   848 layer_factory.hpp:77] Creating layer ip1_ip1_0_split
I1218 11:10:09.132997   848 net.cpp:84] Creating Layer ip1_ip1_0_split
I1218 11:10:09.133003   848 net.cpp:406] ip1_ip1_0_split <- ip1
I1218 11:10:09.133013   848 net.cpp:380] ip1_ip1_0_split -> ip1_ip1_0_split_0
I1218 11:10:09.133024   848 net.cpp:380] ip1_ip1_0_split -> ip1_ip1_0_split_1
I1218 11:10:09.133069   848 net.cpp:122] Setting up ip1_ip1_0_split
I1218 11:10:09.133080   848 net.cpp:129] Top shape: 256 2 (512)
I1218 11:10:09.133085   848 net.cpp:129] Top shape: 256 2 (512)
I1218 11:10:09.133090   848 net.cpp:137] Memory required for data: 192373760
I1218 11:10:09.133100   848 layer_factory.hpp:77] Creating layer ip2
I1218 11:10:09.133112   848 net.cpp:84] Creating Layer ip2
I1218 11:10:09.133118   848 net.cpp:406] ip2 <- ip1_ip1_0_split_0
I1218 11:10:09.133128   848 net.cpp:380] ip2 -> ip2
I1218 11:10:09.133270   848 net.cpp:122] Setting up ip2
I1218 11:10:09.133285   848 net.cpp:129] Top shape: 256 10 (2560)
I1218 11:10:09.133291   848 net.cpp:137] Memory required for data: 192384000
I1218 11:10:09.133301   848 layer_factory.hpp:77] Creating layer center_loss
I1218 11:10:09.133316   848 net.cpp:84] Creating Layer center_loss
I1218 11:10:09.133322   848 net.cpp:406] center_loss <- ip1_ip1_0_split_1
I1218 11:10:09.133329   848 net.cpp:406] center_loss <- label_mnist_1_split_0
I1218 11:10:09.133337   848 net.cpp:380] center_loss -> center_loss
…
I1218 11:10:09.134631   848 solver.cpp:172] Creating test net (#0) specified by net file: train_center_loss.prototxt
I1218 11:10:09.134678   848 net.cpp:294] The NetState phase (1) differed from the phase (0) specified by a rule in layer mnist
I1218 11:10:09.134852   848 net.cpp:51] Initializing net from parameters: 
name: "LeNet"
state {
  phase: TEST
}
layer {
  name: "mnist"
  type: "Data"
  top: "data"
  top: "label"
  include {
    phase: TEST
  }
  transform_param {
    scale: 0.00390625
  }
  data_param {
    source: "../centerloss/mnist_example/data/mnist_test_lmdb"
    batch_size: 100
    backend: LMDB
  }
}
layer {
  name: "conv1_1"
  type: "Convolution"
  bottom: "data"
  top: "conv1_1"
  param {
    lr_mult: 1
  }
  param {
    lr_mult: 2
  }
  convolution_param {
    num_output: 32
    pad: 2
    kernel_size: 5
    stride: 1
    weight_filler {
      type: "xavier"
    }
    bias_filler {
      type: "constant"
    }
  }
}
layer {
  name: "relu1_1"
  type: "PReLU"
  bottom: "conv1_1"
  top: "conv1_1"
}
layer {
  name: "conv1_2"
  type: "Convolution"
  bottom: "conv1_1"
  top: "conv1_2"
  param {
    lr_mult: 1
  }
  param {
    lr_mult: 2
  }
  convolution_param {
    num_output: 32
    pad: 2
    kernel_size: 5
    stride: 1
    weight_filler {
      type: "xavier"
    }
    bias_filler {
      type: "constant"
    }
  }
}
layer {
  name: "relu1_2"
  type: "PReLU"
  bottom: "conv1_2"
  top: "conv1_2"
}
layer {
  name: "pool1"
  type: "Pooling"
  bottom: "conv1_2"
  top: "pool1"
  pooling_param {
    pool: MAX
    kernel_size: 2
    stride: 2
  }
}
layer {
  name: "conv2_1"
  type: "Convolution"
  bottom: "pool1"
  top: "conv2_1"
  param {
    lr_mult: 1
  }
  param {
    lr_mult: 2
  }
  convolution_param {
    num_output: 64
    pad: 2
    kernel_size: 5
    stride: 1
    weight_filler {
      type: "xavier"
    }
    bias_filler {
      type: "constant"
    }
  }
}
layer {
  name: "relu2_1"
  type: "PReLU"
  bottom: "conv2_1"
  top: "conv2_1"
}
layer {
  name: "conv2_2"
  type: "Convolution"
  bottom: "conv2_1"
  top: "conv2_2"
  param {
    lr_mult: 1
  }
  param {
    lr_mult: 2
  }
  convolution_param {
    num_output: 64
    pad: 2
    kernel_size: 5
    stride: 1
    weight_filler {
      type: "xavier"
    }
    bias_filler {
      type: "constant"
    }
  }
}
layer {
  name: "relu2_2"
  type: "PReLU"
  bottom: "conv2_2"
  top: "conv2_2"
}
layer {
  name: "pool2"
  type: "Pooling"
  bottom: "conv2_2"
  top: "pool2"
  pooling_param {
    pool: MAX
    kernel_size: 2
    stride: 2
  }
}
layer {
  name: "conv3_1"
  type: "Convolution"
  bottom: "pool2"
  top: "conv3_1"
  param {
    lr_mult: 1
  }
  param {
    lr_mult: 2
  }
  convolution_param {
    num_output: 128
    pad: 2
    kernel_size: 5
    stride: 1
    weight_filler {
      type: "xavier"
    }
    bias_filler {
      type: "constant"
    }
  }
}
layer {
  name: "relu3_1"
  type: "PReLU"
  bottom: "conv3_1"
  top: "conv3_1"
}
layer {
  name: "conv3_2"
  type: "Convolution"
  bottom: "conv3_1"
  top: "conv3_2"
  param {
    lr_mult: 1
  }
  param {
    lr_mult: 2
  }
  convolution_param {
    num_output: 128
    pad: 2
    kernel_size: 5
    stride: 1
    weight_filler {
      type: "xavier"
    }
    bias_filler {
      type: "constant"
    }
  }
}
layer {
  name: "relu3_2"
  type: "PReLU"
  bottom: "conv3_2"
  top: "conv3_2"
}
layer {
  name: "pool3"
  type: "Pooling"
  bottom: "conv3_2"
  top: "pool3"
  pooling_param {
    pool: MAX
    kernel_size: 2
    stride: 2
  }
}
layer {
  name: "ip1"
  type: "InnerProduct"
  bottom: "pool3"
  top: "ip1"
  param {
    lr_mult: 1
  }
  param {
    lr_mult: 2
  }
  inner_product_param {
    num_output: 2
    weight_filler {
      type: "xavier"
    }
    bias_filler {
      type: "constant"
    }
  }
}
layer {
  name: "ip2"
  type: "InnerProduct"
  bottom: "ip1"
  top: "ip2"
  param {
    lr_mult: 1
  }
  param {
    lr_mult: 2
  }
  inner_product_param {
    num_output: 10
    weight_filler {
      type: "xavier"
    }
    bias_filler {
      type: "constant"
    }
  }
}
layer {
  name: "center_loss"
  type: "NewCenterLoss"
  bottom: "ip1"
  bottom: "label"
  top: "center_loss"
  new_center_loss_param {
    loss_weight: 0.3
    alpha: 0.5
    cluster_num: 10
  }
}
layer {
  name: "accuracy"
  type: "Accuracy"
  bottom: "ip2"
  bottom: "label"
  top: "accuracy"
  include {
    phase: TEST
  }
}
layer {
  name: "loss"
  type: "SoftmaxWithLoss"
  bottom: "ip2"
  bottom: "label"
  top: "loss"
}
I1218 11:10:09.135504   848 layer_factory.hpp:77] Creating layer mnist
I1218 11:10:09.135615   848 db_lmdb.cpp:35] Opened lmdb ../centerloss/mnist_example/data/mnist_test_lmdb
I1218 11:10:09.135645   848 net.cpp:84] Creating Layer mnist
I1218 11:10:09.135659   848 net.cpp:380] mnist -> data
I1218 11:10:09.135671   848 net.cpp:380] mnist -> label
I1218 11:10:09.135800   848 data_layer.cpp:45] output data size: 100,1,28,28
I1218 11:10:09.138247   848 net.cpp:122] Setting up mnist
I1218 11:10:09.138510   848 net.cpp:129] Top shape: 100 1 28 28 (78400)
I1218 11:10:09.138526   848 net.cpp:129] Top shape: 100 (100)
I1218 11:10:09.138531   848 net.cpp:137] Memory required for data: 314000
I1218 11:10:09.138541   848 layer_factory.hpp:77] Creating layer label_mnist_1_split
I1218 11:10:09.138562   848 net.cpp:84] Creating Layer label_mnist_1_split
I1218 11:10:09.138571   848 net.cpp:406] label_mnist_1_split <- label
I1218 11:10:09.138586   848 net.cpp:380] label_mnist_1_split -> label_mnist_1_split_0
I1218 11:10:09.138603   848 net.cpp:380] label_mnist_1_split -> label_mnist_1_split_1
I1218 11:10:09.138614   848 net.cpp:380] label_mnist_1_split -> label_mnist_1_split_2
I1218 11:10:09.138799   848 net.cpp:122] Setting up label_mnist_1_split
I1218 11:10:09.138814   848 net.cpp:129] Top shape: 100 (100)
I1218 11:10:09.138821   848 net.cpp:129] Top shape: 100 (100)
I1218 11:10:09.138828   848 net.cpp:129] Top shape: 100 (100)
I1218 11:10:09.138833   848 net.cpp:137] Memory required for data: 315200
I1218 11:10:09.138839   848 layer_factory.hpp:77] Creating layer conv1_1
I1218 11:10:09.138865   848 net.cpp:84] Creating Layer conv1_1
I1218 11:10:09.138873   848 net.cpp:406] conv1_1 <- data
I1218 11:10:09.138883   848 net.cpp:380] conv1_1 -> conv1_1
I1218 11:10:09.141983   848 net.cpp:122] Setting up conv1_1
I1218 11:10:09.142014   848 net.cpp:129] Top shape: 100 32 28 28 (2508800)
I1218 11:10:09.142026   848 net.cpp:137] Memory required for data: 10350400
I1218 11:10:09.142053   848 layer_factory.hpp:77] Creating layer relu1_1
I1218 11:10:09.142122   848 net.cpp:84] Creating Layer relu1_1
I1218 11:10:09.142138   848 net.cpp:406] relu1_1 <- conv1_1
I1218 11:10:09.142164   848 net.cpp:367] relu1_1 -> conv1_1 (in-place)
I1218 11:10:09.142355   848 net.cpp:122] Setting up relu1_1
I1218 11:10:09.142377   848 net.cpp:129] Top shape: 100 32 28 28 (2508800)
I1218 11:10:09.142390   848 net.cpp:137] Memory required for data: 20385600
I1218 11:10:09.142416   848 layer_factory.hpp:77] Creating layer conv1_2
I1218 11:10:09.142441   848 net.cpp:84] Creating Layer conv1_2
I1218 11:10:09.142452   848 net.cpp:406] conv1_2 <- conv1_1
I1218 11:10:09.142467   848 net.cpp:380] conv1_2 -> conv1_2
I1218 11:10:09.148367   848 net.cpp:122] Setting up conv1_2
I1218 11:10:09.148396   848 net.cpp:129] Top shape: 100 32 28 28 (2508800)
I1218 11:10:09.148407   848 net.cpp:137] Memory required for data: 30420800
I1218 11:10:09.148427   848 layer_factory.hpp:77] Creating layer relu1_2
I1218 11:10:09.148447   848 net.cpp:84] Creating Layer relu1_2
I1218 11:10:09.148459   848 net.cpp:406] relu1_2 <- conv1_2
I1218 11:10:09.148473   848 net.cpp:367] relu1_2 -> conv1_2 (in-place)
I1218 11:10:09.148705   848 net.cpp:122] Setting up relu1_2
I1218 11:10:09.148725   848 net.cpp:129] Top shape: 100 32 28 28 (2508800)
I1218 11:10:09.148735   848 net.cpp:137] Memory required for data: 40456000
I1218 11:10:09.148747   848 layer_factory.hpp:77] Creating layer pool1
I1218 11:10:09.148766   848 net.cpp:84] Creating Layer pool1
I1218 11:10:09.148777   848 net.cpp:406] pool1 <- conv1_2
I1218 11:10:09.148792   848 net.cpp:380] pool1 -> pool1
I1218 11:10:09.148861   848 net.cpp:122] Setting up pool1
I1218 11:10:09.148877   848 net.cpp:129] Top shape: 100 32 14 14 (627200)
I1218 11:10:09.148888   848 net.cpp:137] Memory required for data: 42964800
I1218 11:10:09.148896   848 layer_factory.hpp:77] Creating layer conv2_1
I1218 11:10:09.148919   848 net.cpp:84] Creating Layer conv2_1
I1218 11:10:09.148928   848 net.cpp:406] conv2_1 <- pool1
I1218 11:10:09.148941   848 net.cpp:380] conv2_1 -> conv2_1
I1218 11:10:09.151839   848 net.cpp:122] Setting up conv2_1
I1218 11:10:09.151865   848 net.cpp:129] Top shape: 100 64 14 14 (1254400)
I1218 11:10:09.151872   848 net.cpp:137] Memory required for data: 47982400
I1218 11:10:09.151885   848 layer_factory.hpp:77] Creating layer relu2_1
I1218 11:10:09.151904   848 net.cpp:84] Creating Layer relu2_1
I1218 11:10:09.151912   848 net.cpp:406] relu2_1 <- conv2_1
I1218 11:10:09.151922   848 net.cpp:367] relu2_1 -> conv2_1 (in-place)
I1218 11:10:09.152074   848 net.cpp:122] Setting up relu2_1
I1218 11:10:09.152088   848 net.cpp:129] Top shape: 100 64 14 14 (1254400)
I1218 11:10:09.152097   848 net.cpp:137] Memory required for data: 53000000
I1218 11:10:09.152118   848 layer_factory.hpp:77] Creating layer conv2_2
I1218 11:10:09.152143   848 net.cpp:84] Creating Layer conv2_2
I1218 11:10:09.152153   848 net.cpp:406] conv2_2 <- conv2_1
I1218 11:10:09.152173   848 net.cpp:380] conv2_2 -> conv2_2
I1218 11:10:09.155179   848 net.cpp:122] Setting up conv2_2
I1218 11:10:09.155205   848 net.cpp:129] Top shape: 100 64 14 14 (1254400)
I1218 11:10:09.155215   848 net.cpp:137] Memory required for data: 58017600
I1218 11:10:09.155231   848 layer_factory.hpp:77] Creating layer relu2_2
I1218 11:10:09.155247   848 net.cpp:84] Creating Layer relu2_2
I1218 11:10:09.155258   848 net.cpp:406] relu2_2 <- conv2_2
I1218 11:10:09.155272   848 net.cpp:367] relu2_2 -> conv2_2 (in-place)
I1218 11:10:09.155431   848 net.cpp:122] Setting up relu2_2
I1218 11:10:09.155449   848 net.cpp:129] Top shape: 100 64 14 14 (1254400)
I1218 11:10:09.155459   848 net.cpp:137] Memory required for data: 63035200
I1218 11:10:09.155472   848 layer_factory.hpp:77] Creating layer pool2
I1218 11:10:09.155490   848 net.cpp:84] Creating Layer pool2
I1218 11:10:09.155501   848 net.cpp:406] pool2 <- conv2_2
I1218 11:10:09.155514   848 net.cpp:380] pool2 -> pool2
I1218 11:10:09.155585   848 net.cpp:122] Setting up pool2
I1218 11:10:09.155601   848 net.cpp:129] Top shape: 100 64 7 7 (313600)
I1218 11:10:09.155661   848 net.cpp:137] Memory required for data: 64289600
I1218 11:10:09.155673   848 layer_factory.hpp:77] Creating layer conv3_1
I1218 11:10:09.155694   848 net.cpp:84] Creating Layer conv3_1
I1218 11:10:09.155705   848 net.cpp:406] conv3_1 <- pool2
I1218 11:10:09.155724   848 net.cpp:380] conv3_1 -> conv3_1
I1218 11:10:09.162291   848 net.cpp:122] Setting up conv3_1
I1218 11:10:09.162338   848 net.cpp:129] Top shape: 100 128 7 7 (627200)
I1218 11:10:09.162349   848 net.cpp:137] Memory required for data: 66798400
I1218 11:10:09.162370   848 layer_factory.hpp:77] Creating layer relu3_1
I1218 11:10:09.162390   848 net.cpp:84] Creating Layer relu3_1
I1218 11:10:09.162402   848 net.cpp:406] relu3_1 <- conv3_1
I1218 11:10:09.162420   848 net.cpp:367] relu3_1 -> conv3_1 (in-place)
I1218 11:10:09.162585   848 net.cpp:122] Setting up relu3_1
I1218 11:10:09.162603   848 net.cpp:129] Top shape: 100 128 7 7 (627200)
I1218 11:10:09.162613   848 net.cpp:137] Memory required for data: 69307200
I1218 11:10:09.162627   848 layer_factory.hpp:77] Creating layer conv3_2
I1218 11:10:09.162654   848 net.cpp:84] Creating Layer conv3_2
I1218 11:10:09.162665   848 net.cpp:406] conv3_2 <- conv3_1
I1218 11:10:09.162681   848 net.cpp:380] conv3_2 -> conv3_2
I1218 11:10:09.177100   848 net.cpp:122] Setting up conv3_2
I1218 11:10:09.177145   848 net.cpp:129] Top shape: 100 128 7 7 (627200)
I1218 11:10:09.177212   848 net.cpp:137] Memory required for data: 71816000
I1218 11:10:09.177245   848 layer_factory.hpp:77] Creating layer relu3_2
I1218 11:10:09.177299   848 net.cpp:84] Creating Layer relu3_2
I1218 11:10:09.177321   848 net.cpp:406] relu3_2 <- conv3_2
I1218 11:10:09.177359   848 net.cpp:367] relu3_2 -> conv3_2 (in-place)
I1218 11:10:09.177527   848 net.cpp:122] Setting up relu3_2
I1218 11:10:09.177546   848 net.cpp:129] Top shape: 100 128 7 7 (627200)
I1218 11:10:09.177554   848 net.cpp:137] Memory required for data: 74324800
I1218 11:10:09.177567   848 layer_factory.hpp:77] Creating layer pool3
I1218 11:10:09.177595   848 net.cpp:84] Creating Layer pool3
I1218 11:10:09.177605   848 net.cpp:406] pool3 <- conv3_2
I1218 11:10:09.177618   848 net.cpp:380] pool3 -> pool3
I1218 11:10:09.177687   848 net.cpp:122] Setting up pool3
I1218 11:10:09.177706   848 net.cpp:129] Top shape: 100 128 4 4 (204800)
I1218 11:10:09.177714   848 net.cpp:137] Memory required for data: 75144000
I1218 11:10:09.177724   848 layer_factory.hpp:77] Creating layer ip1
I1218 11:10:09.177740   848 net.cpp:84] Creating Layer ip1
I1218 11:10:09.177749   848 net.cpp:406] ip1 <- pool3
I1218 11:10:09.177764   848 net.cpp:380] ip1 -> ip1
I1218 11:10:09.177989   848 net.cpp:122] Setting up ip1
I1218 11:10:09.178005   848 net.cpp:129] Top shape: 100 2 (200)
I1218 11:10:09.178014   848 net.cpp:137] Memory required for data: 75144800
I1218 11:10:09.178028   848 layer_factory.hpp:77] Creating layer ip1_ip1_0_split
I1218 11:10:09.178045   848 net.cpp:84] Creating Layer ip1_ip1_0_split
I1218 11:10:09.178055   848 net.cpp:406] ip1_ip1_0_split <- ip1
I1218 11:10:09.178069   848 net.cpp:380] ip1_ip1_0_split -> ip1_ip1_0_split_0
I1218 11:10:09.178084   848 net.cpp:380] ip1_ip1_0_split -> ip1_ip1_0_split_1
I1218 11:10:09.178158   848 net.cpp:122] Setting up ip1_ip1_0_split
I1218 11:10:09.178174   848 net.cpp:129] Top shape: 100 2 (200)
I1218 11:10:09.178185   848 net.cpp:129] Top shape: 100 2 (200)
I1218 11:10:09.178194   848 net.cpp:137] Memory required for data: 75146400
I1218 11:10:09.178203   848 layer_factory.hpp:77] Creating layer ip2
I1218 11:10:09.178217   848 net.cpp:84] Creating Layer ip2
I1218 11:10:09.178227   848 net.cpp:406] ip2 <- ip1_ip1_0_split_0
I1218 11:10:09.178242   848 net.cpp:380] ip2 -> ip2
I1218 11:10:09.178416   848 net.cpp:122] Setting up ip2
I1218 11:10:09.178431   848 net.cpp:129] Top shape: 100 10 (1000)
I1218 11:10:09.178442   848 net.cpp:137] Memory required for data: 75150400
I1218 11:10:09.178455   848 layer_factory.hpp:77] Creating layer ip2_ip2_0_split
I1218 11:10:09.178470   848 net.cpp:84] Creating Layer ip2_ip2_0_split
I1218 11:10:09.178519   848 net.cpp:406] ip2_ip2_0_split <- ip2
I1218 11:10:09.178532   848 net.cpp:380] ip2_ip2_0_split -> ip2_ip2_0_split_0
I1218 11:10:09.178547   848 net.cpp:380] ip2_ip2_0_split -> ip2_ip2_0_split_1
I1218 11:10:09.178613   848 net.cpp:122] Setting up ip2_ip2_0_split
I1218 11:10:09.178628   848 net.cpp:129] Top shape: 100 10 (1000)
I1218 11:10:09.178638   848 net.cpp:129] Top shape: 100 10 (1000)
I1218 11:10:09.178647   848 net.cpp:137] Memory required for data: 75158400
I1218 11:10:09.178655   848 layer_factory.hpp:77] Creating layer center_loss
I1218 11:10:09.178670   848 net.cpp:84] Creating Layer center_loss
I1218 11:10:09.178679   848 net.cpp:406] center_loss <- ip1_ip1_0_split_1
I1218 11:10:09.178694   848 net.cpp:406] center_loss <- label_mnist_1_split_0
I1218 11:10:09.178706   848 net.cpp:380] center_loss -> center_loss
…
